jessica.tflite (tflite, 60928 bytes, 18 tensors)

tfl.pseudo_qconst1 i1 [1, 1088] scale=0.0020050243 zero_point=0
0	0x03	0.006015073
1	0xe1	-0.062155753
2	0xf9	-0.014035171
3	0xd8	-0.08020097
4	0x90	-0.22456273
5	0xb6	-0.1483718
6	0x91	-0.22255771
7	0x0a	0.020050243
8	0xa3	-0.18646726
9	0xe1	-0.062155753
10	0xbb	-0.13834669
11	0xa1	-0.19047731
12	0xec	-0.040100485
13	0x99	-0.2065175
14	0xd2	-0.09223112
15	0xf3	-0.026065316
16	0x3e	0.12431151
17	0xdd	-0.07017585
18	0xd1	-0.09423614
19	0x19	0.05012561
20	0xf0	-0.03208039
21	0xf0	-0.03208039
22	0xd4	-0.08822107
23	0x1e	0.06015073
24	0x27	0.07819595
25	0xa9	-0.17443712
26	0xea	-0.044110537
27	0x0a	0.020050243
28	0xd4	-0.08822107
29	0xd2	-0.09223112
30	0x81	-0.2546381
31	0xb9	-0.14235672
32	0xe5	-0.054135658
33	0xd3	-0.0902261
34	0xb8	-0.14436175
35	0xda	-0.076190926
36	0x06	0.012030146
37	0xc0	-0.12832156
38	0xd9	-0.07819595
39	0xa7	-0.17844717
40	0xfc	-0.008020097
41	0xeb	-0.04210551
42	0x22	0.06817083
43	0x18	0.048120584
44	0x06	0.012030146
45	0x11	0.034085415
46	0xcb	-0.10626629
47	0x0e	0.028070342
48	0xfb	-0.010025121
49	0xc9	-0.11027634
50	0xd2	-0.09223112
51	0xe0	-0.06416078
52	0xe6	-0.052130632
53	0xcf	-0.098246194
54	0xec	-0.040100485
55	0x03	0.006015073
56	0xf0	-0.03208039
57	0x23	0.07017585
58	0xe6	-0.052130632
59	0xd5	-0.08621605
60	0xe9	-0.04611556
61	0xcb	-0.10626629
62	0xd8	-0.08020097
63	0xd4	-0.08822107
64	0xf9	-0.014035171
65	0xd1	-0.09423614
66	0xc7	-0.114286385
67	0xf0	-0.03208039
68	0xac	-0.16842204
69	0xed	-0.038095463
70	0x9f	-0.19448736
71	0xf7	-0.018045219
72	0xa6	-0.1804522
73	0xe3	-0.058145706
74	0xeb	-0.04210551
75	0xf4	-0.024060292
76	0xe2	-0.06015073
77	0xc8	-0.11228137
78	0xea	-0.044110537
79	0xcb	-0.10626629
80	0x2a	0.08421102
81	0xb4	-0.15238185
82	0xef	-0.034085415
83	0x13	0.038095463
84	0xdb	-0.0741859
85	0xf2	-0.028070342
86	0xd1	-0.09423614
87	0xfe	-0.0040100487
88	0x1b	0.054135658
89	0x08	0.016040195
90	0xed	-0.038095463
91	0x17	0.04611556
92	0x0f	0.030075366
93	0xed	-0.038095463
94	0x9d	-0.19849741
95	0xda	-0.076190926
96	0x09	0.018045219
97	0xb3	-0.15438688
98	0xdf	-0.066165805
99	0xe5	-0.054135658
100	0x07	0.014035171
101	0xe0	-0.06416078
102	0xfa	-0.012030146
103	0xb8	-0.14436175
104	0xe6	-0.052130632
105	0x06	0.012030146
106	0xf1	-0.030075366
107	0x20	0.06416078
108	0x01	0.0020050243
109	0x0c	0.024060292
110	0xcc	-0.104261264
111	0x14	0.040100485
112	0x0c	0.024060292
113	0xde	-0.06817083
114	0xd8	-0.08020097
115	0xfc	-0.008020097
116	0xed	-0.038095463
117	0xba	-0.1403517
118	0xfa	-0.012030146
119	0xe7	-0.05012561
120	0x0b	0.022055268
121	0x10	0.03208039
122	0xc1	-0.12631653
123	0xe7	-0.05012561
124	0xec	-0.040100485
125	0xc6	-0.11629141
126	0xfe	-0.0040100487
127	0xd4	-0.08822107
128	0xe2	-0.06015073
129	0xf8	-0.016040195
130	0x15	0.04210551
131	0x2c	0.08822107
132	0xa5	-0.18245721
133	0xf5	-0.022055268
134	0xb6	-0.1483718
135	0xfe	-0.0040100487
136	0xa3	-0.18646726
137	0x0e	0.028070342
138	0x29	0.082205996
139	0xde	-0.06817083
140	0xf9	-0.014035171
141	0xd8	-0.08020097
142	0xaa	-0.1724321
143	0xd0	-0.09624117
144	0x2a	0.08421102
145	0xed	-0.038095463
146	0xff	-0.0020050243
147	0x0a	0.020050243
148	0xeb	-0.04210551
149	0xed	-0.038095463
150	0xc7	-0.114286385
151	0x10	0.03208039
152	0x1c	0.056140684
153	0xe2	-0.06015073
154	0xba	-0.1403517
155	0x20	0.06416078
156	0xd7	-0.082205996
157	0xcd	-0.10225624
158	0xac	-0.16842204
159	0xe6	-0.052130632
160	0x11	0.034085415
161	0xe2	-0.06015073
162	0x09	0.018045219
163	0x15	0.04210551
164	0x16	0.044110537
165	0xee	-0.036090437
166	0x03	0.006015073
167	0xd6	-0.08421102
168	0xe4	-0.056140684
169	0x04	0.008020097
170	0xb4	-0.15238185
171	0x0d	0.026065316
172	0x14	0.040100485
173	0x0e	0.028070342
174	0xf1	-0.030075366
175	0xde	-0.06817083
176	0xe4	-0.056140684
177	0xde	-0.06817083
178	0xd1	-0.09423614
179	0xed	-0.038095463
180	0x04	0.008020097
181	0xcc	-0.104261264
182	0x01	0.0020050243
183	0x0a	0.020050243
184	0x08	0.016040195
185	0xf5	-0.022055268
186	0xf6	-0.020050243
187	0x21	0.066165805
188	0x00	0.0
189	0xec	-0.040100485
190	0x0f	0.030075366
191	0x13	0.038095463
192	0xce	-0.10025122
193	0xfc	-0.008020097
194	0x26	0.076190926
195	0xf3	-0.026065316
196	0xd6	-0.08421102
197	0xf0	-0.03208039
198	0xd6	-0.08421102
199	0x19	0.05012561
200	0xe5	-0.054135658
201	0xec	-0.040100485
202	0xf0	-0.03208039
203	0xee	-0.036090437
204	0x0b	0.022055268
205	0xe5	-0.054135658
206	0xcc	-0.104261264
207	0xe7	-0.05012561
208	0xfc	-0.008020097
209	0x06	0.012030146
210	0xef	-0.034085415
211	0xdf	-0.066165805
212	0x04	0.008020097
213	0xde	-0.06817083
214	0xc5	-0.11829644
215	0x04	0.008020097
216	0x0d	0.026065316
217	0xaf	-0.16240697
218	0xd7	-0.082205996
219	0x14	0.040100485
220	0xc1	-0.12631653
221	0xce	-0.10025122
222	0xc1	-0.12631653
223	0xd6	-0.08421102
224	0xd7	-0.082205996
225	0xd9	-0.07819595
226	0xe7	-0.05012561
227	0x0a	0.020050243
228	0x1e	0.06015073
229	0xfe	-0.0040100487
230	0x01	0.0020050243
231	0xd4	-0.08822107
232	0xd5	-0.08621605
233	0xfe	-0.0040100487
234	0xca	-0.108271316
235	0x08	0.016040195
236	0x27	0.07819595
237	0x3f	0.12631653
238	0x18	0.048120584
239	0xcd	-0.10225624
240	0xf0	-0.03208039
241	0xff	-0.0020050243
242	0xeb	-0.04210551
243	0xd3	-0.0902261
244	0xc6	-0.11629141
245	0x00	0.0
246	0xe8	-0.048120584
247	0xeb	-0.04210551
248	0xd4	-0.08822107
249	0x12	0.036090437
250	0x16	0.044110537
251	0x01	0.0020050243
252	0xe7	-0.05012561
253	0xe4	-0.056140684
254	0x13	0.038095463
255	0xf2	-0.028070342

tfl.pseudo_qconst3 i1 [64, 1, 1, 64]
0	0x4b	75
1	0x5e	94
2	0x18	24
3	0x1d	29
4	0xf2	-14
5	0xaa	-86
6	0xae	-82
7	0x61	97
8	0x08	8
9	0x5f	95
10	0xc1	-63
11	0x05	5
12	0x74	116
13	0x60	96
14	0x6f	111
15	0x01	1
16	0xda	-38
17	0x28	40
18	0xec	-20
19	0x10	16
20	0xd6	-42
21	0x0f	15
22	0xfb	-5
23	0xb5	-75
24	0x14	20
25	0x26	38
26	0xe1	-31
27	0x22	34
28	0x22	34
29	0x81	-127
30	0xe2	-30
31	0xe4	-28
32	0x5c	92
33	0x35	53
34	0xe2	-30
35	0x13	19
36	0x63	99
37	0x4e	78
38	0x68	104
39	0x30	48
40	0xd2	-46
41	0x27	39
42	0xd9	-39
43	0x3a	58
44	0xb5	-75
45	0xe0	-32
46	0xf2	-14
47	0x39	57
48	0x3b	59
49	0xba	-70
50	0x41	65
51	0x07	7
52	0x16	22
53	0xed	-19
54	0x7c	124
55	0x6c	108
56	0x47	71
57	0xc4	-60
58	0xb5	-75
59	0xbd	-67
60	0xdb	-37
61	0x03	3
62	0xc7	-57
63	0x56	86
64	0x49	73
65	0x2a	42
66	0x42	66
67	0xd4	-44
68	0xd2	-46
69	0xf4	-12
70	0xbc	-68
71	0xc3	-61
72	0xce	-50
73	0xe1	-31
74	0xce	-50
75	0xfc	-4
76	0x27	39
77	0xe2	-30
78	0x2b	43
79	0x00	0
80	0x41	65
81	0xe1	-31
82	0xf4	-12
83	0x28	40
84	0xcb	-53
85	0x11	17
86	0x0b	11
87	0x02	2
88	0x0e	14
89	0x18	24
90	0x3a	58
91	0x47	71
92	0xe7	-25
93	0xeb	-21
94	0xaf	-81
95	0xbd	-67
96	0xe9	-23
97	0x09	9
98	0xd6	-42
99	0xf5	-11
100	0xe2	-30
101	0xc5	-59
102	0x7f	127
103	0xe1	-31
104	0xd5	-43
105	0x2f	47
106	0xe2	-30
107	0xc6	-58
108	0x00	0
109	0xa9	-87
110	0x48	72
111	0x21	33
112	0x10	16
113	0x3d	61
114	0xf7	-9
115	0xfa	-6
116	0x35	53
117	0x40	64
118	0x45	69
119	0x12	18
120	0x5b	91
121	0xb5	-75
122	0xf6	-10
123	0x0f	15
124	0xf0	-16
125	0xec	-20
126	0xfa	-6
127	0x18	24
128	0xce	-50
129	0xcf	-49
130	0xd3	-45
131	0x1a	26
132	0xde	-34
133	0xed	-19
134	0x30	48
135	0xc5	-59
136	0x2a	42
137	0x18	24
138	0xbe	-66
139	0x26	38
140	0xd8	-40
141	0x28	40
142	0xe8	-24
143	0x42	66
144	0xf9	-7
145	0xed	-19
146	0xf6	-10
147	0xc2	-62
148	0xd5	-43
149	0xd8	-40
150	0xd9	-39
151	0xff	-1
152	0xff	-1
153	0xe3	-29
154	0x05	5
155	0x55	85
156	0xbd	-67
157	0x6c	108
158	0x28	40
159	0xa4	-92
160	0x6e	110
161	0xc9	-55
162	0xe4	-28
163	0x7f	127
164	0x17	23
165	0x0c	12
166	0xc3	-61
167	0xd8	-40
168	0xef	-17
169	0x78	120
170	0xbf	-65
171	0x32	50
172	0xcc	-52
173	0xee	-18
174	0x64	100
175	0xb2	-78
176	0xb9	-71
177	0x83	-125
178	0x00	0
179	0x14	20
180	0xe5	-27
181	0x51	81
182	0xcd	-51
183	0x01	1
184	0x54	84
185	0xad	-83
186	0xcc	-52
187	0x0d	13
188	0xe2	-30
189	0x25	37
190	0xf8	-8
191	0xed	-19
192	0x9c	-100
193	0x51	81
194	0x14	20
195	0x0e	14
196	0x12	18
197	0x1c	28
198	0x13	19
199	0x17	23
200	0x7f	127
201	0xde	-34
202	0xc9	-55
203	0xd0	-48
204	0x20	32
205	0x1c	28
206	0xe9	-23
207	0x48	72
208	0xdf	-33
209	0xdf	-33
210	0x45	69
211	0x42	66
212	0xf5	-11
213	0x04	4
214	0xe7	-25
215	0xb3	-77
216	0x1c	28
217	0xcc	-52
218	0x2a	42
219	0x09	9
220	0x0c	12
221	0xdd	-35
222	0xe8	-24
223	0xd5	-43
224	0xd0	-48
225	0x0d	13
226	0x10	16
227	0x46	70
228	0xc2	-62
229	0x4b	75
230	0x7c	124
231	0xc1	-63
232	0x43	67
233	0xdf	-33
234	0xca	-54
235	0xc7	-57
236	0x9c	-100
237	0xbc	-68
238	0xcc	-52
239	0x2e	46
240	0xfb	-5
241	0xdf	-33
242	0x0b	11
243	0xbd	-67
244	0x22	34
245	0x12	18
246	0x0e	14
247	0xb2	-78
248	0x14	20
249	0xdd	-35
250	0x11	17
251	0xbf	-65
252	0xc8	-56
253	0x07	7
254	0x08	8
255	0x32	50

tfl.pseudo_qconst5 i1 [1, 23, 1, 64]
0	0x73	115
1	0xf7	-9
2	0xd5	-43
3	0xf7	-9
4	0x2a	42
5	0xf2	-14
6	0x4a	74
7	0xd6	-42
8	0x79	121
9	0x2f	47
10	0x35	53
11	0xf7	-9
12	0x15	21
13	0xbe	-66
14	0xcb	-53
15	0x73	115
16	0x7f	127
17	0xcf	-49
18	0x07	7
19	0xdd	-35
20	0x9f	-97
21	0xed	-19
22	0x81	-127
23	0xa3	-93
24	0xdc	-36
25	0x8c	-116
26	0xba	-70
27	0x08	8
28	0xb3	-77
29	0xd6	-42
30	0x92	-110
31	0xd2	-46
32	0xc5	-59
33	0xfd	-3
34	0x1f	31
35	0x69	105
36	0xc3	-61
37	0xe9	-23
38	0x0b	11
39	0xa6	-90
40	0xa3	-93
41	0x5a	90
42	0xf9	-7
43	0x38	56
44	0x49	73
45	0xfe	-2
46	0xdb	-37
47	0x0c	12
48	0x2a	42
49	0xc8	-56
50	0x7f	127
51	0x1d	29
52	0x16	22
53	0x2c	44
54	0xba	-70
55	0xf4	-12
56	0xcd	-51
57	0xe3	-29
58	0x81	-127
59	0x24	36
60	0x7f	127
61	0x84	-124
62	0x98	-104
63	0x39	57
64	0x41	65
65	0x15	21
66	0xd5	-43
67	0xfa	-6
68	0x7f	127
69	0xef	-17
70	0x7f	127
71	0xee	-18
72	0x37	55
73	0x70	112
74	0x59	89
75	0x83	-125
76	0xff	-1
77	0x00	0
78	0xf1	-15
79	0x7f	127
80	0x44	68
81	0xbb	-69
82	0x1f	31
83	0xe6	-26
84	0xf3	-13
85	0xf1	-15
86	0x2f	47
87	0x14	20
88	0xc5	-59
89	0x41	65
90	0xd3	-45
91	0x64	100
92	0xc8	-56
93	0xe3	-29
94	0xfe	-2
95	0xdb	-37
96	0x00	0
97	0xc1	-63
98	0x2b	43
99	0x74	116
100	0x92	-110
101	0xdd	-35
102	0x37	55
103	0xd7	-41
104	0xc6	-58
105	0x40	64
106	0x55	85
107	0x2f	47
108	0x56	86
109	0xd8	-40
110	0x18	24
111	0x40	64
112	0x16	22
113	0xed	-19
114	0x79	121
115	0x12	18
116	0x2b	43
117	0x27	39
118	0x7f	127
119	0xf0	-16
120	0xec	-20
121	0xf0	-16
122	0xa0	-96
123	0xfd	-3
124	0x02	2
125	0x03	3
126	0x83	-125
127	0x26	38
128	0xe9	-23
129	0x36	54
130	0xad	-83
131	0x0e	14
132	0x05	5
133	0x81	-127
134	0x01	1
135	0xd6	-42
136	0xca	-54
137	0xac	-84
138	0x48	72
139	0x81	-127
140	0x1a	26
141	0xae	-82
142	0xe9	-23
143	0xdf	-33
144	0x4e	78
145	0xdc	-36
146	0xd4	-44
147	0x11	17
148	0xd6	-42
149	0x1b	27
150	0x3c	60
151	0x2d	45
152	0x24	36
153	0xff	-1
154	0xd8	-40
155	0x6d	109
156	0x66	102
157	0xa4	-92
158	0x14	20
159	0x0d	13
160	0xb7	-73
161	0x0d	13
162	0x35	53
163	0x7f	127
164	0x95	-107
165	0xd7	-41
166	0x28	40
167	0xab	-85
168	0x08	8
169	0x3b	59
170	0x25	37
171	0x1f	31
172	0x27	39
173	0x9b	-101
174	0x7f	127
175	0xd2	-46
176	0xd8	-40
177	0xe4	-28
178	0xd6	-42
179	0xff	-1
180	0xc7	-57
181	0x7f	127
182	0xa8	-88
183	0x13	19
184	0x44	68
185	0x09	9
186	0xd2	-46
187	0xf3	-13
188	0x2b	43
189	0xf5	-11
190	0xbc	-68
191	0x49	73
192	0xf8	-8
193	0x62	98
194	0xa9	-87
195	0x26	38
196	0x68	104
197	0xe2	-30
198	0x2f	47
199	0xdf	-33
200	0x81	-127
201	0x15	21
202	0xdd	-35
203	0xe3	-29
204	0x1b	27
205	0xaf	-81
206	0x02	2
207	0x07	7
208	0x04	4
209	0x0f	15
210	0xa8	-88
211	0xcd	-51
212	0x5d	93
213	0x09	9
214	0x19	25
215	0xff	-1
216	0x7f	127
217	0xab	-85
218	0xca	-54
219	0xfd	-3
220	0x54	84
221	0x81	-127
222	0x08	8
223	0x43	67
224	0xb8	-72
225	0x42	66
226	0x6d	109
227	0x48	72
228	0x81	-127
229	0x1a	26
230	0x05	5
231	0xd9	-39
232	0x2e	46
233	0xce	-50
234	0x23	35
235	0x15	21
236	0x6c	108
237	0x22	34
238	0x52	82
239	0x03	3
240	0x25	37
241	0xc5	-59
242	0x1f	31
243	0x0c	12
244	0x87	-121
245	0x4b	75
246	0x05	5
247	0x19	25
248	0x11	17
249	0x41	65
250	0xfd	-3
251	0xc9	-55
252	0x4d	77
253	0x39	57
254	0x00	0
255	0x1b	27

tfl.pseudo_qconst7 i1 [64, 1, 1, 64]
0	0x15	21
1	0xe5	-27
2	0x16	22
3	0xd4	-44
4	0xca	-54
5	0x23	35
6	0x35	53
7	0xcd	-51
8	0xc5	-59
9	0xeb	-21
10	0x00	0
11	0xd5	-43
12	0xf1	-15
13	0xb7	-73
14	0x1d	29
15	0x7f	127
16	0x03	3
17	0x07	7
18	0x2c	44
19	0xf3	-13
20	0xe7	-25
21	0xee	-18
22	0x17	23
23	0xdf	-33
24	0xe6	-26
25	0x10	16
26	0x22	34
27	0x1c	28
28	0xca	-54
29	0x22	34
30	0x37	55
31	0x61	97
32	0xfe	-2
33	0xe2	-30
34	0xeb	-21
35	0xed	-19
36	0xb3	-77
37	0x34	52
38	0xe1	-31
39	0x34	52
40	0x5c	92
41	0xd8	-40
42	0xc9	-55
43	0xff	-1
44	0xdd	-35
45	0xcb	-53
46	0x0e	14
47	0xd5	-43
48	0xd3	-45
49	0xfa	-6
50	0x1c	28
51	0x07	7
52	0xea	-22
53	0xda	-38
54	0xb8	-72
55	0x29	41
56	0x0a	10
57	0xcf	-49
58	0x43	67
59	0xad	-83
60	0xd9	-39
61	0x1a	26
62	0xdc	-36
63	0x25	37
64	0x2e	46
65	0x54	84
66	0x54	84
67	0x54	84
68	0x1e	30
69	0xb8	-72
70	0xa7	-89
71	0x35	53
72	0x35	53
73	0x26	38
74	0x33	51
75	0xc8	-56
76	0x9a	-102
77	0x82	-126
78	0xa5	-91
79	0x3b	59
80	0xe2	-30
81	0xe2	-30
82	0xf0	-16
83	0xf7	-9
84	0x39	57
85	0x3c	60
86	0x43	67
87	0x10	16
88	0x1f	31
89	0xe8	-24
90	0xd6	-42
91	0x9f	-97
92	0xbe	-66
93	0x91	-111
94	0x53	83
95	0x59	89
96	0x38	56
97	0x7f	127
98	0x31	49
99	0x17	23
100	0xe5	-27
101	0x13	19
102	0xf2	-14
103	0x18	24
104	0x12	18
105	0x70	112
106	0x19	25
107	0xf4	-12
108	0x5f	95
109	0x16	22
110	0x01	1
111	0x4f	79
112	0x07	7
113	0x15	21
114	0xcc	-52
115	0x2a	42
116	0x0a	10
117	0xd5	-43
118	0x10	16
119	0x34	52
120	0xff	-1
121	0x37	55
122	0xff	-1
123	0x14	20
124	0x76	118
125	0xd0	-48
126	0x3d	61
127	0x13	19
128	0xfa	-6
129	0x1c	28
130	0x3b	59
131	0xea	-22
132	0xf3	-13
133	0xe3	-29
134	0x07	7
135	0x19	25
136	0x12	18
137	0x7f	127
138	0xb5	-75
139	0x1c	28
140	0xd7	-41
141	0xfa	-6
142	0xb4	-76
143	0x25	37
144	0x14	20
145	0xf6	-10
146	0xcd	-51
147	0xee	-18
148	0xe6	-26
149	0x0d	13
150	0xff	-1
151	0xee	-18
152	0x33	51
153	0xcc	-52
154	0xe6	-26
155	0x10	16
156	0x0f	15
157	0x2f	47
158	0x35	53
159	0xfb	-5
160	0x2d	45
161	0xf3	-13
162	0xd0	-48
163	0x11	17
164	0x6d	109
165	0xf8	-8
166	0x1c	28
167	0x26	38
168	0x38	56
169	0xf3	-13
170	0xe8	-24
171	0xce	-50
172	0x4b	75
173	0x2e	46
174	0xa0	-96
175	0xba	-70
176	0x29	41
177	0xd8	-40
178	0xa3	-93
179	0xdf	-33
180	0xe6	-26
181	0xf1	-15
182	0x32	50
183	0xf0	-16
184	0xe5	-27
185	0x11	17
186	0xdf	-33
187	0x40	64
188	0xf0	-16
189	0x70	112
190	0xdd	-35
191	0x8f	-113
192	0xf9	-7
193	0x15	21
194	0x23	35
195	0xcc	-52
196	0x47	71
197	0x0f	15
198	0x9f	-97
199	0x08	8
200	0xb7	-73
201	0x4b	75
202	0xd4	-44
203	0x7f	127
204	0xde	-34
205	0x38	56
206	0xf1	-15
207	0xa0	-96
208	0xff	-1
209	0x5b	91
210	0x1b	27
211	0x3e	62
212	0xa2	-94
213	0x54	84
214	0xf6	-10
215	0x32	50
216	0xcf	-49
217	0x21	33
218	0x4d	77
219	0x0c	12
220	0x29	41
221	0x04	4
222	0xf0	-16
223	0xd0	-48
224	0xba	-70
225	0x44	68
226	0x56	86
227	0xfa	-6
228	0x5a	90
229	0xec	-20
230	0xd9	-39
231	0x37	55
232	0xc7	-57
233	0x55	85
234	0x40	64
235	0x4b	75
236	0x30	48
237	0xcf	-49
238	0x01	1
239	0xf8	-8
240	0x3d	61
241	0x22	34
242	0x96	-106
243	0xd7	-41
244	0x20	32
245	0x6c	108
246	0x07	7
247	0x17	23
248	0xfd	-3
249	0x03	3
250	0x0a	10
251	0xea	-22
252	0x3b	59
253	0xff	-1
254	0x2d	45
255	0xce	-50

tfl.pseudo_qconst9 i1 [1, 15, 1, 32]
0	0xa9	-87
1	0xf4	-12
2	0xd9	-39
3	0x43	67
4	0xc3	-61
5	0x7f	127
6	0x55	85
7	0x2c	44
8	0xa8	-88
9	0x3d	61
10	0x17	23
11	0x89	-119
12	0x81	-127
13	0x3c	60
14	0x10	16
15	0x21	33
16	0x08	8
17	0x1a	26
18	0xa1	-95
19	0x55	85
20	0x51	81
21	0x07	7
22	0xd0	-48
23	0xe9	-23
24	0xab	-85
25	0x32	50
26	0x4e	78
27	0x13	19
28	0x9a	-102
29	0xe0	-32
30	0xcd	-51
31	0x42	66
32	0x19	25
33	0xcd	-51
34	0x1c	28
35	0xf3	-13
36	0x81	-127
37	0x37	55
38	0xfb	-5
39	0x90	-112
40	0xcd	-51
41	0xf2	-14
42	0xe1	-31
43	0x81	-127
44	0x0c	12
45	0x1f	31
46	0x1a	26
47	0x4b	75
48	0x26	38
49	0x43	67
50	0x81	-127
51	0xe5	-27
52	0xec	-20
53	0x24	36
54	0x3d	61
55	0x81	-127
56	0x25	37
57	0x02	2
58	0xed	-19
59	0x66	102
60	0x86	-122
61	0xf9	-7
62	0x3d	61
63	0xc7	-57
64	0xc4	-60
65	0xce	-50
66	0x61	97
67	0xe0	-32
68	0xc2	-62
69	0x07	7
70	0xd7	-41
71	0x86	-122
72	0x1f	31
73	0xb9	-71
74	0xdd	-35
75	0x8a	-118
76	0xb5	-75
77	0x1b	27
78	0xb5	-75
79	0xd4	-44
80	0x9b	-101
81	0x4d	77
82	0x19	25
83	0xe2	-30
84	0x05	5
85	0x7f	127
86	0x4b	75
87	0xf7	-9
88	0xe2	-30
89	0xc6	-58
90	0x3a	58
91	0xf5	-11
92	0xf6	-10
93	0xc1	-63
94	0xd8	-40
95	0xb1	-79
96	0x64	100
97	0xf3	-13
98	0xe9	-23
99	0x84	-124
100	0xea	-22
101	0x25	37
102	0x7f	127
103	0xb0	-80
104	0x4c	76
105	0xa6	-90
106	0x9d	-99
107	0xeb	-21
108	0xa4	-92
109	0x71	113
110	0xfb	-5
111	0x1b	27
112	0x3b	59
113	0x2b	43
114	0xd2	-46
115	0x5b	91
116	0x0f	15
117	0xec	-20
118	0x6f	111
119	0x1d	29
120	0x1f	31
121	0xe6	-26
122	0x81	-127
123	0x37	55
124	0x90	-112
125	0x6b	107
126	0x8a	-118
127	0xbe	-66
128	0x7f	127
129	0xe4	-28
130	0x16	22
131	0x22	34
132	0xaf	-81
133	0xfb	-5
134	0x4c	76
135	0xa2	-94
136	0x65	101
137	0xe0	-32
138	0xf8	-8
139	0x3c	60
140	0xf6	-10
141	0x21	33
142	0x46	70
143	0x35	53
144	0x59	89
145	0x13	19
146	0xba	-70
147	0x4e	78
148	0x0f	15
149	0x39	57
150	0x78	120
151	0xdd	-35
152	0xc6	-58
153	0xe0	-32
154	0x95	-107
155	0xdf	-33
156	0x96	-106
157	0x7f	127
158	0x2e	46
159	0x1b	27
160	0x64	100
161	0xc5	-59
162	0x7f	127
163	0x81	-127
164	0xc9	-55
165	0xbe	-66
166	0x04	4
167	0xc2	-62
168	0x0c	12
169	0x39	57
170	0x89	-119
171	0x31	49
172	0xe6	-26
173	0xc9	-55
174	0x4a	74
175	0xc5	-59
176	0xb2	-78
177	0xc4	-60
178	0x32	50
179	0xdb	-37
180	0x26	38
181	0x9e	-98
182	0x7f	127
183	0xf5	-11
184	0x14	20
185	0x7f	127
186	0xb0	-80
187	0x28	40
188	0xc7	-57
189	0x4a	74
190	0x46	70
191	0x12	18
192	0x05	5
193	0x1d	29
194	0x8d	-115
195	0x22	34
196	0xf0	-16
197	0xcc	-52
198	0xe6	-26
199	0x1d	29
200	0xcb	-53
201	0xb7	-73
202	0x96	-106
203	0xca	-54
204	0xd4	-44
205	0xaa	-86
206	0x0c	12
207	0x92	-110
208	0xf7	-9
209	0xc0	-64
210	0x30	48
211	0xe2	-30
212	0xac	-84
213	0xd4	-44
214	0x15	21
215	0xa5	-91
216	0xda	-38
217	0xff	-1
218	0x71	113
219	0x91	-111
220	0xb5	-75
221	0x30	48
222	0x03	3
223	0x07	7
224	0xd1	-47
225	0xff	-1
226	0xe9	-23
227	0x49	73
228	0xb9	-71
229	0x8f	-113
230	0xae	-82
231	0x3f	63
232	0x3c	60
233	0x0b	11
234	0x5e	94
235	0xd0	-48
236	0x10	16
237	0x01	1
238	0x26	38
239	0x34	52
240	0xa1	-95
241	0xe3	-29
242	0x43	67
243	0x47	71
244	0xc6	-58
245	0x94	-108
246	0x6f	111
247	0xfa	-6
248	0x01	1
249	0x8f	-113
250	0x57	87
251	0x81	-127
252	0x15	21
253	0x62	98
254	0x81	-127
255	0x5e	94

tfl.pseudo_qconst11 i1 [1, 9, 1, 32]
0	0xce	-50
1	0x81	-127
2	0x81	-127
3	0xcc	-52
4	0x04	4
5	0x41	65
6	0x0f	15
7	0x3f	63
8	0x33	51
9	0xf9	-7
10	0x2d	45
11	0x81	-127
12	0x7f	127
13	0x3f	63
14	0x74	116
15	0x2a	42
16	0xe6	-26
17	0xe1	-31
18	0xee	-18
19	0x71	113
20	0xdb	-37
21	0x41	65
22	0x81	-127
23	0x81	-127
24	0x5a	90
25	0xb6	-74
26	0xee	-18
27	0x05	5
28	0xe8	-24
29	0xf0	-16
30	0x81	-127
31	0xd6	-42
32	0x81	-127
33	0x29	41
34	0xbc	-68
35	0x81	-127
36	0xee	-18
37	0xda	-38
38	0xfd	-3
39	0x78	120
40	0x56	86
41	0x81	-127
42	0xad	-83
43	0x90	-112
44	0x56	86
45	0xd8	-40
46	0x2b	43
47	0x17	23
48	0x58	88
49	0x3b	59
50	0x8c	-116
51	0x0b	11
52	0x2c	44
53	0x20	32
54	0x5c	92
55	0x59	89
56	0x45	69
57	0xe4	-28
58	0x1a	26
59	0x38	56
60	0xd6	-42
61	0x9b	-101
62	0x1d	29
63	0xd4	-44
64	0xa7	-89
65	0x04	4
66	0x3a	58
67	0xf1	-15
68	0x4f	79
69	0xff	-1
70	0xd0	-48
71	0x2f	47
72	0x72	114
73	0xc0	-64
74	0x2e	46
75	0x42	66
76	0x1b	27
77	0x6a	106
78	0xe2	-30
79	0x3b	59
80	0x6a	106
81	0xa8	-88
82	0xca	-54
83	0xc1	-63
84	0xd7	-41
85	0xe3	-29
86	0xd5	-43
87	0x36	54
88	0xf9	-7
89	0x81	-127
90	0xe1	-31
91	0x7f	127
92	0xec	-20
93	0x18	24
94	0xd6	-42
95	0xeb	-21
96	0xba	-70
97	0x4c	76
98	0x2a	42
99	0xae	-82
100	0x54	84
101	0x2d	45
102	0x0c	12
103	0x19	25
104	0x6d	109
105	0x98	-104
106	0x61	97
107	0x32	50
108	0x61	97
109	0x34	52
110	0xbb	-69
111	0x27	39
112	0x61	97
113	0xdb	-37
114	0x7f	127
115	0x85	-123
116	0x13	19
117	0x6c	108
118	0x38	56
119	0x47	71
120	0x11	17
121	0x25	37
122	0xac	-84
123	0x32	50
124	0xac	-84
125	0x03	3
126	0x05	5
127	0xdf	-33
128	0xed	-19
129	0x11	17
130	0xb6	-74
131	0xcb	-53
132	0xda	-38
133	0x34	52
134	0x3e	62
135	0xa5	-91
136	0x18	24
137	0x38	56
138	0x42	66
139	0x15	21
140	0xdb	-37
141	0xbb	-69
142	0xe7	-25
143	0x10	16
144	0xca	-54
145	0xcb	-53
146	0x7f	127
147	0xd5	-43
148	0xf7	-9
149	0x47	71
150	0x2b	43
151	0xb1	-79
152	0x04	4
153	0x15	21
154	0xf3	-13
155	0x85	-123
156	0xb6	-74
157	0x94	-108
158	0xcc	-52
159	0xcc	-52
160	0xed	-19
161	0xc7	-57
162	0xb9	-71
163	0x1a	26
164	0x54	84
165	0x7f	127
166	0x55	85
167	0xa2	-94
168	0xff	-1
169	0xd3	-45
170	0x04	4
171	0x4d	77
172	0xf4	-12
173	0xda	-38
174	0x7f	127
175	0x33	51
176	0xd7	-41
177	0x44	68
178	0x2e	46
179	0xa2	-94
180	0x37	55
181	0xb5	-75
182	0xaa	-86
183	0x1c	28
184	0x81	-127
185	0x40	64
186	0x43	67
187	0xeb	-21
188	0x91	-111
189	0xb0	-80
190	0xa5	-91
191	0xc8	-56
192	0x4f	79
193	0x3c	60
194	0xe5	-27
195	0xf3	-13
196	0x40	64
197	0x62	98
198	0xb3	-77
199	0x7f	127
200	0x94	-108
201	0x44	68
202	0xd6	-42
203	0x40	64
204	0x38	56
205	0x73	115
206	0x39	57
207	0xad	-83
208	0x56	86
209	0xf7	-9
210	0xdc	-36
211	0x81	-127
212	0x10	16
213	0x81	-127
214	0x37	55
215	0xd3	-45
216	0x17	23
217	0x3f	63
218	0x02	2
219	0xb9	-71
220	0x81	-127
221	0xc4	-60
222	0x7d	125
223	0x81	-127
224	0x10	16
225	0x42	66
226	0x3d	61
227	0x39	57
228	0x8a	-118
229	0x53	83
230	0xfe	-2
231	0x49	73
232	0x81	-127
233	0xbc	-68
234	0x9c	-100
235	0x09	9
236	0x67	103
237	0x5c	92
238	0x64	100
239	0xae	-82
240	0x2a	42
241	0x81	-127
242	0x8a	-118
243	0xa7	-89
244	0x81	-127
245	0x32	50
246	0xac	-84
247	0x18	24
248	0x4e	78
249	0x23	35
250	0x7f	127
251	0xae	-82
252	0x3a	58
253	0x76	118
254	0x1a	26
255	0x99	-103

tfl.pseudo_qconst13 i1 [64, 1, 1, 64]
0	0xc7	-57
1	0x38	56
2	0xfc	-4
3	0xe9	-23
4	0x63	99
5	0xc2	-62
6	0xed	-19
7	0x22	34
8	0xe8	-24
9	0x2e	46
10	0x38	56
11	0x2d	45
12	0xe7	-25
13	0xee	-18
14	0x1b	27
15	0xf3	-13
16	0xbf	-65
17	0x06	6
18	0xac	-84
19	0x28	40
20	0xe8	-24
21	0x36	54
22	0x98	-104
23	0xe6	-26
24	0xf8	-8
25	0xe3	-29
26	0xca	-54
27	0x4c	76
28	0x29	41
29	0x39	57
30	0xcd	-51
31	0x10	16
32	0xe0	-32
33	0x33	51
34	0xbb	-69
35	0x4f	79
36	0x7f	127
37	0x2b	43
38	0xee	-18
39	0xf6	-10
40	0xbd	-67
41	0xf5	-11
42	0x25	37
43	0x5b	91
44	0x3e	62
45	0xce	-50
46	0xf7	-9
47	0xfd	-3
48	0xb4	-76
49	0xf0	-16
50	0xe0	-32
51	0xfb	-5
52	0xb1	-79
53	0x0c	12
54	0x2a	42
55	0x2b	43
56	0xf8	-8
57	0xbc	-68
58	0x62	98
59	0xe4	-28
60	0x30	48
61	0x00	0
62	0x1b	27
63	0xc4	-60
64	0xc2	-62
65	0xfc	-4
66	0xd5	-43
67	0xaf	-81
68	0xbb	-69
69	0xba	-70
70	0x03	3
71	0x09	9
72	0xd0	-48
73	0x75	117
74	0x26	38
75	0xc4	-60
76	0x56	86
77	0x35	53
78	0xe7	-25
79	0x7f	127
80	0xec	-20
81	0x5f	95
82	0xbc	-68
83	0x47	71
84	0xa4	-92
85	0x37	55
86	0xb9	-71
87	0xb5	-75
88	0x4b	75
89	0xd9	-39
90	0xce	-50
91	0x0a	10
92	0x1b	27
93	0x03	3
94	0xce	-50
95	0x58	88
96	0xe7	-25
97	0x1c	28
98	0xec	-20
99	0xf1	-15
100	0x2d	45
101	0x1e	30
102	0x59	89
103	0xe1	-31
104	0x60	96
105	0x10	16
106	0x15	21
107	0x6d	109
108	0x4b	75
109	0x52	82
110	0x35	53
111	0x3f	63
112	0x01	1
113	0x47	71
114	0x6b	107
115	0x1a	26
116	0x23	35
117	0xcc	-52
118	0xf1	-15
119	0xc4	-60
120	0x2d	45
121	0x13	19
122	0x2a	42
123	0x1c	28
124	0xf3	-13
125	0xc5	-59
126	0x58	88
127	0x25	37
128	0xe7	-25
129	0x2b	43
130	0xf9	-7
131	0xe3	-29
132	0x3d	61
133	0x61	97
134	0x6b	107
135	0x26	38
136	0xd4	-44
137	0x90	-112
138	0x09	9
139	0x5c	92
140	0xed	-19
141	0xa5	-91
142	0xb7	-73
143	0xbe	-66
144	0xaf	-81
145	0x1c	28
146	0x40	64
147	0xc6	-58
148	0xe1	-31
149	0xd9	-39
150	0x02	2
151	0x10	16
152	0xdb	-37
153	0xf1	-15
154	0x35	53
155	0x9f	-97
156	0xf4	-12
157	0xdb	-37
158	0xf1	-15
159	0x38	56
160	0xcb	-53
161	0x33	51
162	0xaf	-81
163	0x34	52
164	0x2c	44
165	0xce	-50
166	0xe1	-31
167	0xb7	-73
168	0x41	65
169	0x76	118
170	0x97	-105
171	0xd5	-43
172	0x7f	127
173	0x0f	15
174	0xbc	-68
175	0xe6	-26
176	0x20	32
177	0xd1	-47
178	0xdd	-35
179	0xcd	-51
180	0xc4	-60
181	0x4b	75
182	0xae	-82
183	0xc6	-58
184	0xa3	-93
185	0x43	67
186	0x36	54
187	0xd3	-45
188	0xe3	-29
189	0xe9	-23
190	0xdc	-36
191	0x31	49
192	0x1f	31
193	0x30	48
194	0x03	3
195	0xea	-22
196	0xea	-22
197	0xe4	-28
198	0x22	34
199	0xff	-1
200	0x48	72
201	0xbd	-67
202	0x3b	59
203	0x4e	78
204	0xc4	-60
205	0x44	68
206	0xa7	-89
207	0x06	6
208	0xf8	-8
209	0x34	52
210	0x54	84
211	0x36	54
212	0x06	6
213	0xc8	-56
214	0xcc	-52
215	0x0f	15
216	0xda	-38
217	0x0f	15
218	0xcd	-51
219	0xf8	-8
220	0xe3	-29
221	0xc8	-56
222	0x7f	127
223	0xee	-18
224	0xcb	-53
225	0x23	35
226	0x0b	11
227	0x25	37
228	0xfa	-6
229	0x05	5
230	0x0f	15
231	0xce	-50
232	0x31	49
233	0xf6	-10
234	0x22	34
235	0xd9	-39
236	0x1c	28
237	0x0b	11
238	0xf4	-12
239	0xbb	-69
240	0xde	-34
241	0xaf	-81
242	0x14	20
243	0x07	7
244	0xfd	-3
245	0x0c	12
246	0xe4	-28
247	0xf9	-7
248	0xac	-84
249	0x0c	12
250	0x33	51
251	0x1a	26
252	0x1c	28
253	0x42	66
254	0xbd	-67
255	0xe7	-25

tfl.pseudo_qconst15 i1 [1, 11, 1, 32]
0	0x0f	15
1	0x3d	61
2	0x44	68
3	0x37	55
4	0xc4	-60
5	0xfd	-3
6	0xa1	-95
7	0xd8	-40
8	0xcc	-52
9	0xe2	-30
10	0x15	21
11	0xb3	-77
12	0x24	36
13	0x06	6
14	0x1a	26
15	0x75	117
16	0xf4	-12
17	0x4f	79
18	0x8c	-116
19	0xf4	-12
20	0x5d	93
21	0x38	56
22	0xda	-38
23	0x5b	91
24	0x81	-127
25	0xe5	-27
26	0x21	33
27	0xd1	-47
28	0x7f	127
29	0xa3	-93
30	0xb7	-73
31	0xe9	-23
32	0x81	-127
33	0xc6	-58
34	0xc1	-63
35	0xd9	-39
36	0x23	35
37	0xe8	-24
38	0xb3	-77
39	0x33	51
40	0x46	70
41	0x10	16
42	0xa3	-93
43	0xe9	-23
44	0xa8	-88
45	0xce	-50
46	0x23	35
47	0x63	99
48	0x49	73
49	0x16	22
50	0xe3	-29
51	0x2d	45
52	0x70	112
53	0x2a	42
54	0x7f	127
55	0x13	19
56	0x29	41
57	0x72	114
58	0x81	-127
59	0x34	52
60	0x0c	12
61	0x81	-127
62	0x3d	61
63	0xcd	-51
64	0x02	2
65	0x24	36
66	0x16	22
67	0x34	52
68	0xb2	-78
69	0x51	81
70	0xda	-38
71	0x0e	14
72	0x14	20
73	0x16	22
74	0x81	-127
75	0x9b	-101
76	0x09	9
77	0x1f	31
78	0xba	-70
79	0xb3	-77
80	0x29	41
81	0x0e	14
82	0x66	102
83	0xb7	-73
84	0x20	32
85	0x2a	42
86	0xd9	-39
87	0x29	41
88	0xc4	-60
89	0x71	113
90	0xf1	-15
91	0x1a	26
92	0x96	-106
93	0x19	25
94	0xdf	-33
95	0x02	2
96	0x3e	62
97	0x01	1
98	0x95	-107
99	0x81	-127
100	0x81	-127
101	0xfa	-6
102	0x7f	127
103	0xe0	-32
104	0xb2	-78
105	0x2b	43
106	0x13	19
107	0xe5	-27
108	0xa5	-91
109	0x3b	59
110	0xda	-38
111	0x9e	-98
112	0xb6	-74
113	0xe7	-25
114	0xff	-1
115	0x48	72
116	0x04	4
117	0x1e	30
118	0xc9	-55
119	0xce	-50
120	0x01	1
121	0xf2	-14
122	0xf0	-16
123	0xee	-18
124	0xd6	-42
125	0xd6	-42
126	0xad	-83
127	0x34	52
128	0x42	66
129	0x17	23
130	0x58	88
131	0x0c	12
132	0x9a	-102
133	0xf9	-7
134	0x5b	91
135	0x78	120
136	0x02	2
137	0x04	4
138	0x59	89
139	0x7d	125
140	0x85	-123
141	0x81	-127
142	0xfd	-3
143	0x33	51
144	0x01	1
145	0x81	-127
146	0x90	-112
147	0x0a	10
148	0xca	-54
149	0xfc	-4
150	0xfd	-3
151	0x81	-127
152	0xac	-84
153	0x7f	127
154	0x31	49
155	0x32	50
156	0xf1	-15
157	0xf9	-7
158	0x92	-110
159	0x0c	12
160	0x3c	60
161	0xbb	-69
162	0x81	-127
163	0xdc	-36
164	0xed	-19
165	0xa1	-95
166	0x03	3
167	0x21	33
168	0x48	72
169	0x81	-127
170	0xe9	-23
171	0x06	6
172	0x81	-127
173	0x2c	44
174	0x04	4
175	0x6d	109
176	0x3e	62
177	0x1e	30
178	0x81	-127
179	0x15	21
180	0x7f	127
181	0x31	49
182	0xc9	-55
183	0x05	5
184	0x4d	77
185	0xcb	-53
186	0xe3	-29
187	0xcd	-51
188	0x67	103
189	0x4e	78
190	0xa5	-91
191	0xf4	-12
192	0xaf	-81
193	0x14	20
194	0x09	9
195	0x42	66
196	0xd7	-41
197	0xa7	-89
198	0x2f	47
199	0x93	-109
200	0xe1	-31
201	0xf9	-7
202	0xf3	-13
203	0x54	84
204	0xc5	-59
205	0x13	19
206	0x5f	95
207	0xb5	-75
208	0x5f	95
209	0x4d	77
210	0xd3	-45
211	0x7f	127
212	0x10	16
213	0x02	2
214	0xec	-20
215	0xfc	-4
216	0x85	-123
217	0x1a	26
218	0x77	119
219	0x3b	59
220	0x59	89
221	0xc0	-64
222	0x16	22
223	0x26	38
224	0x2c	44
225	0xb9	-71
226	0xe9	-23
227	0xe0	-32
228	0xda	-38
229	0x81	-127
230	0x2d	45
231	0x0d	13
232	0x38	56
233	0x3c	60
234	0x5b	91
235	0x7f	127
236	0xc4	-60
237	0xdb	-37
238	0xf4	-12
239	0xc8	-56
240	0xe2	-30
241	0x82	-126
242	0x70	112
243	0x7d	125
244	0xfd	-3
245	0xd4	-44
246	0xe4	-28
247	0x77	119
248	0x2c	44
249	0xdc	-36
250	0xfa	-6
251	0xf7	-9
252	0xde	-34
253	0xe8	-24
254	0x71	113
255	0xd6	-42

tfl.pseudo_qconst17 i1 [1, 7, 1, 32]
0	0xa6	-90
1	0xc1	-63
2	0x36	54
3	0xf4	-12
4	0x0a	10
5	0xe5	-27
6	0x36	54
7	0x54	84
8	0x3e	62
9	0xb7	-73
10	0x31	49
11	0x08	8
12	0x70	112
13	0x03	3
14	0x6f	111
15	0xf4	-12
16	0x3d	61
17	0xf9	-7
18	0x1e	30
19	0xaf	-81
20	0xad	-83
21	0xb5	-75
22	0xfc	-4
23	0xca	-54
24	0xda	-38
25	0x2f	47
26	0x69	105
27	0x7b	123
28	0x56	86
29	0xb9	-71
30	0xf2	-14
31	0x01	1
32	0x35	53
33	0x9d	-99
34	0x3c	60
35	0x55	85
36	0xcd	-51
37	0x07	7
38	0xe7	-25
39	0x72	114
40	0x22	34
41	0x42	66
42	0x14	20
43	0x81	-127
44	0xd4	-44
45	0xbd	-67
46	0x13	19
47	0xc1	-63
48	0xf7	-9
49	0x23	35
50	0xf0	-16
51	0x31	49
52	0x4d	77
53	0xdd	-35
54	0x81	-127
55	0x14	20
56	0xe0	-32
57	0x77	119
58	0x57	87
59	0x9c	-100
60	0xe8	-24
61	0xa8	-88
62	0xbe	-66
63	0xf6	-10
64	0x7a	122
65	0x44	68
66	0x7f	127
67	0x38	56
68	0xd6	-42
69	0xd5	-43
70	0x1d	29
71	0x3a	58
72	0xbc	-68
73	0xc6	-58
74	0x24	36
75	0xa7	-89
76	0xec	-20
77	0xec	-20
78	0x11	17
79	0x19	25
80	0x03	3
81	0x47	71
82	0xae	-82
83	0x85	-123
84	0x15	21
85	0x7f	127
86	0xb1	-79
87	0x04	4
88	0x7f	127
89	0xb8	-72
90	0x4b	75
91	0x55	85
92	0xee	-18
93	0xd7	-41
94	0xc6	-58
95	0xe6	-26
96	0xd8	-40
97	0xe7	-25
98	0xfa	-6
99	0xa4	-92
100	0xd0	-48
101	0xf1	-15
102	0xd8	-40
103	0xe6	-26
104	0xc2	-62
105	0xaf	-81
106	0x99	-103
107	0xe1	-31
108	0xbf	-65
109	0x2d	45
110	0x62	98
111	0x7f	127
112	0xae	-82
113	0x1a	26
114	0xd4	-44
115	0x6e	110
116	0x05	5
117	0xbb	-69
118	0xf2	-14
119	0x7f	127
120	0x39	57
121	0x81	-127
122	0xa3	-93
123	0x10	16
124	0xf6	-10
125	0x7f	127
126	0x4f	79
127	0xdc	-36
128	0x7f	127
129	0x3a	58
130	0x91	-111
131	0x7f	127
132	0xcb	-53
133	0x7f	127
134	0x81	-127
135	0xf2	-14
136	0x5d	93
137	0xb6	-74
138	0x7f	127
139	0x0b	11
140	0x1e	30
141	0xc6	-58
142	0xbf	-65
143	0xae	-82
144	0x30	48
145	0xea	-22
146	0xbb	-69
147	0x7f	127
148	0x81	-127
149	0xc2	-62
150	0xcb	-53
151	0x0a	10
152	0x1b	27
153	0x5e	94
154	0xdf	-33
155	0x97	-105
156	0xb1	-79
157	0x29	41
158	0x81	-127
159	0xb2	-78
160	0x78	120
161	0xb3	-77
162	0xc8	-56
163	0x53	83
164	0x7f	127
165	0x54	84
166	0x96	-106
167	0x81	-127
168	0x45	69
169	0xdc	-36
170	0x4f	79
171	0x75	117
172	0x7f	127
173	0x81	-127
174	0x81	-127
175	0x32	50
176	0x05	5
177	0xe2	-30
178	0x81	-127
179	0xc8	-56
180	0xdd	-35
181	0xac	-84
182	0x55	85
183	0x7c	124
184	0xa9	-87
185	0x2d	45
186	0x2f	47
187	0xd8	-40
188	0x81	-127
189	0x2c	44
190	0x34	52
191	0x33	51
192	0x2b	43
193	0x81	-127
194	0xef	-17
195	0xc3	-61
196	0x23	35
197	0xd2	-46
198	0x49	73
199	0xe7	-25
200	0x81	-127
201	0x7f	127
202	0xb5	-75
203	0x11	17
204	0xee	-18
205	0xf2	-14
206	0x0e	14
207	0x84	-124
208	0x81	-127
209	0x81	-127
210	0xa5	-91
211	0x9d	-99
212	0x7e	126
213	0x23	35
214	0x93	-109
215	0x9d	-99
216	0x20	32
217	0xdc	-36
218	0x81	-127
219	0x81	-127
220	0x52	82
221	0xf7	-9
222	0xef	-17
223	0x81	-127

tfl.pseudo_qconst19 i1 [64, 1, 1, 32]
0	0x1b	27
1	0x10	16
2	0x01	1
3	0x46	70
4	0xf1	-15
5	0x03	3
6	0xf0	-16
7	0x08	8
8	0xb3	-77
9	0x17	23
10	0x01	1
11	0x2f	47
12	0x25	37
13	0x1e	30
14	0x1d	29
15	0x08	8
16	0xd9	-39
17	0xf5	-11
18	0x9e	-98
19	0x2a	42
20	0x3f	63
21	0x1f	31
22	0x81	-127
23	0x03	3
24	0x2a	42
25	0x90	-112
26	0x00	0
27	0xb6	-74
28	0x76	118
29	0xb1	-79
30	0xcf	-49
31	0x2e	46
32	0xb4	-76
33	0xec	-20
34	0x01	1
35	0xc1	-63
36	0x0f	15
37	0x07	7
38	0x82	-126
39	0x18	24
40	0xfa	-6
41	0xd2	-46
42	0xa7	-89
43	0x30	48
44	0x4b	75
45	0x00	0
46	0x69	105
47	0xea	-22
48	0x2f	47
49	0xb3	-77
50	0x44	68
51	0xc8	-56
52	0xdf	-33
53	0xe1	-31
54	0x1d	29
55	0x81	-127
56	0x3e	62
57	0xe7	-25
58	0x2f	47
59	0xc7	-57
60	0xfe	-2
61	0x74	116
62	0x1f	31
63	0x5b	91
64	0x05	5
65	0x13	19
66	0xb7	-73
67	0xa1	-95
68	0xdb	-37
69	0xff	-1
70	0x3c	60
71	0xae	-82
72	0x7f	127
73	0x3f	63
74	0x23	35
75	0x1b	27
76	0xf1	-15
77	0xf4	-12
78	0x16	22
79	0x38	56
80	0xdf	-33
81	0x42	66
82	0xeb	-21
83	0x3c	60
84	0xf4	-12
85	0xcb	-53
86	0xf4	-12
87	0x5b	91
88	0x1d	29
89	0xef	-17
90	0x4f	79
91	0xbc	-68
92	0x4c	76
93	0x2b	43
94	0x13	19
95	0xe3	-29
96	0xef	-17
97	0x5f	95
98	0xf5	-11
99	0xa0	-96
100	0x4c	76
101	0xd0	-48
102	0x64	100
103	0x10	16
104	0xe8	-24
105	0x00	0
106	0x36	54
107	0x2c	44
108	0xbc	-68
109	0x18	24
110	0x59	89
111	0x29	41
112	0x2e	46
113	0x42	66
114	0x18	24
115	0x17	23
116	0xed	-19
117	0x8d	-115
118	0xc4	-60
119	0xa3	-93
120	0xde	-34
121	0x0c	12
122	0x33	51
123	0x20	32
124	0xf1	-15
125	0x2c	44
126	0x42	66
127	0x81	-127
128	0xc4	-60
129	0x03	3
130	0xad	-83
131	0x34	52
132	0xa5	-91
133	0xcd	-51
134	0x33	51
135	0x6b	107
136	0xaa	-86
137	0x81	-127
138	0x41	65
139	0xf3	-13
140	0x2f	47
141	0x2f	47
142	0x56	86
143	0x2a	42
144	0x07	7
145	0x65	101
146	0xf4	-12
147	0xb7	-73
148	0xce	-50
149	0x35	53
150	0xb8	-72
151	0x21	33
152	0xeb	-21
153	0xc4	-60
154	0xad	-83
155	0x1f	31
156	0x72	114
157	0x98	-104
158	0xee	-18
159	0x0c	12
160	0xd1	-47
161	0xc0	-64
162	0x1f	31
163	0xcc	-52
164	0xee	-18
165	0x18	24
166	0xf0	-16
167	0xcf	-49
168	0x22	34
169	0xf3	-13
170	0xba	-70
171	0x57	87
172	0xfe	-2
173	0x2a	42
174	0x15	21
175	0xba	-70
176	0xc6	-58
177	0x7f	127
178	0xcb	-53
179	0xd6	-42
180	0xc7	-57
181	0x1c	28
182	0x0d	13
183	0x24	36
184	0x14	20
185	0x45	69
186	0xee	-18
187	0x34	52
188	0xf3	-13
189	0x1d	29
190	0xd7	-41
191	0x1b	27
192	0x69	105
193	0x79	121
194	0xf0	-16
195	0x19	25
196	0x0a	10
197	0xca	-54
198	0x22	34
199	0x24	36
200	0xda	-38
201	0x4f	79
202	0x32	50
203	0x3c	60
204	0xb8	-72
205	0xb6	-74
206	0xdc	-36
207	0xc7	-57
208	0x1e	30
209	0xe4	-28
210	0x07	7
211	0x06	6
212	0x31	49
213	0x24	36
214	0xe5	-27
215	0x98	-104
216	0x33	51
217	0xc1	-63
218	0x44	68
219	0x47	71
220	0x5f	95
221	0x81	-127
222	0x14	20
223	0xa3	-93
224	0xf6	-10
225	0x4f	79
226	0xfc	-4
227	0x7f	127
228	0xe6	-26
229	0xc1	-63
230	0xdf	-33
231	0x67	103
232	0x22	34
233	0xfc	-4
234	0x23	35
235	0x24	36
236	0x14	20
237	0xd3	-45
238	0xfd	-3
239	0xe8	-24
240	0xfd	-3
241	0x16	22
242	0xfa	-6
243	0x49	73
244	0xd6	-42
245	0xcd	-51
246	0x04	4
247	0xdf	-33
248	0xc2	-62
249	0x38	56
250	0x05	5
251	0x44	68
252	0xd5	-43
253	0xf0	-16
254	0x24	36
255	0x05	5

tfl.pseudo_qconst21 i1 [1, 5, 1, 32]
0	0x3c	60
1	0xb3	-77
2	0xa4	-92
3	0x21	33
4	0x17	23
5	0x6d	109
6	0x7f	127
7	0x3e	62
8	0xce	-50
9	0xb4	-76
10	0xd8	-40
11	0xa8	-88
12	0x1a	26
13	0x98	-104
14	0xc4	-60
15	0xf5	-11
16	0x10	16
17	0x60	96
18	0x81	-127
19	0xab	-85
20	0xb9	-71
21	0x2e	46
22	0x0f	15
23	0xe9	-23
24	0xc7	-57
25	0xc5	-59
26	0x42	66
27	0xde	-34
28	0x3a	58
29	0x2b	43
30	0xfe	-2
31	0xf0	-16
32	0xd2	-46
33	0x55	85
34	0x5c	92
35	0x5c	92
36	0xac	-84
37	0x74	116
38	0x07	7
39	0x2d	45
40	0x92	-110
41	0x81	-127
42	0xd3	-45
43	0x0e	14
44	0x81	-127
45	0xc1	-63
46	0xf0	-16
47	0x81	-127
48	0xcc	-52
49	0xcf	-49
50	0x03	3
51	0x81	-127
52	0x0f	15
53	0x81	-127
54	0x20	32
55	0xd5	-43
56	0x15	21
57	0x2c	44
58	0x5b	91
59	0x2d	45
60	0x07	7
61	0x46	70
62	0xa3	-93
63	0x35	53
64	0x30	48
65	0x7f	127
66	0x52	82
67	0x6b	107
68	0x7a	122
69	0x81	-127
70	0x1a	26
71	0x64	100
72	0x60	96
73	0xbd	-67
74	0xe2	-30
75	0x7b	123
76	0xa5	-91
77	0x7f	127
78	0x9b	-101
79	0xc9	-55
80	0x7f	127
81	0x81	-127
82	0x79	121
83	0x43	67
84	0xcc	-52
85	0x4b	75
86	0x58	88
87	0x24	36
88	0xe5	-27
89	0x09	9
90	0x97	-105
91	0x27	39
92	0xa7	-89
93	0x7f	127
94	0x1f	31
95	0x67	103
96	0x81	-127
97	0xd3	-45
98	0x81	-127
99	0x1d	29
100	0x7f	127
101	0x96	-106
102	0xf7	-9
103	0x1a	26
104	0x7f	127
105	0xa1	-95
106	0x81	-127
107	0x81	-127
108	0x68	104
109	0xac	-84
110	0x7f	127
111	0xa1	-95
112	0xf3	-13
113	0x74	116
114	0xff	-1
115	0xdf	-33
116	0x70	112
117	0x4c	76
118	0x7f	127
119	0xec	-20
120	0x7f	127
121	0x7f	127
122	0x81	-127
123	0x86	-122
124	0x81	-127
125	0x02	2
126	0xc4	-60
127	0x18	24
128	0x03	3
129	0xbf	-65
130	0x63	99
131	0x81	-127
132	0x20	32
133	0x0e	14
134	0xe8	-24
135	0x81	-127
136	0x3f	63
137	0x4d	77
138	0x99	-103
139	0xc9	-55
140	0x72	114
141	0x6f	111
142	0x49	73
143	0xbd	-67
144	0x4c	76
145	0xcc	-52
146	0x73	115
147	0x44	68
148	0x81	-127
149	0x04	4
150	0x04	4
151	0x81	-127
152	0xb1	-79
153	0x66	102
154	0xe1	-31
155	0x81	-127
156	0x64	100
157	0x73	115
158	0x81	-127
159	0x7f	127

tfl.pseudo_qconst23 i1 [32, 5, 1, 40]
0	0x01	1
1	0xe3	-29
2	0xca	-54
3	0xe0	-32
4	0xbf	-65
5	0xc2	-62
6	0x04	4
7	0x15	21
8	0xe0	-32
9	0xd2	-46
10	0x2d	45
11	0x39	57
12	0xc0	-64
13	0xbf	-65
14	0x0c	12
15	0xdb	-37
16	0x30	48
17	0xfd	-3
18	0xda	-38
19	0x47	71
20	0xcd	-51
21	0x62	98
22	0x30	48
23	0xd1	-47
24	0x19	25
25	0x31	49
26	0xf2	-14
27	0x51	81
28	0x02	2
29	0xca	-54
30	0x2a	42
31	0xac	-84
32	0xd0	-48
33	0xd5	-43
34	0xa8	-88
35	0xe0	-32
36	0xe9	-23
37	0xc9	-55
38	0xd2	-46
39	0x82	-126
40	0xf0	-16
41	0x0f	15
42	0x12	18
43	0x35	53
44	0xb6	-74
45	0xfa	-6
46	0xd4	-44
47	0x35	53
48	0xc4	-60
49	0x2a	42
50	0x15	21
51	0xe4	-28
52	0xf1	-15
53	0x0c	12
54	0x06	6
55	0xd9	-39
56	0x3b	59
57	0x4c	76
58	0x56	86
59	0x51	81
60	0x13	19
61	0x58	88
62	0xf9	-7
63	0x17	23
64	0xc6	-58
65	0x1b	27
66	0x3e	62
67	0x6c	108
68	0xe1	-31
69	0x0e	14
70	0x13	19
71	0x83	-125
72	0xfb	-5
73	0xb0	-80
74	0xdf	-33
75	0xb1	-79
76	0xf3	-13
77	0xad	-83
78	0xe6	-26
79	0x81	-127
80	0x06	6
81	0x15	21
82	0x37	55
83	0xf9	-7
84	0x01	1
85	0xc3	-61
86	0x9d	-99
87	0xe3	-29
88	0x51	81
89	0x2c	44
90	0xa1	-95
91	0x18	24
92	0x30	48
93	0xf3	-13
94	0x1a	26
95	0xe0	-32
96	0xd5	-43
97	0xae	-82
98	0xfb	-5
99	0x61	97
100	0x4b	75
101	0x36	54
102	0x50	80
103	0x07	7
104	0xee	-18
105	0x1a	26
106	0x5a	90
107	0xc0	-64
108	0xd5	-43
109	0xf7	-9
110	0xd5	-43
111	0xa7	-89
112	0xcd	-51
113	0xdb	-37
114	0xa0	-96
115	0xc1	-63
116	0x1a	26
117	0xe3	-29
118	0x9a	-102
119	0xcc	-52
120	0xda	-38
121	0xfb	-5
122	0x4d	77
123	0x09	9
124	0x35	53
125	0x1d	29
126	0xe3	-29
127	0xe9	-23
128	0xc0	-64
129	0x01	1
130	0xae	-82
131	0x05	5
132	0x6b	107
133	0xe8	-24
134	0xdb	-37
135	0x1e	30
136	0x05	5
137	0x1e	30
138	0xe1	-31
139	0x43	67
140	0x3f	63
141	0x1b	27
142	0x0c	12
143	0xf6	-10
144	0x04	4
145	0xce	-50
146	0x57	87
147	0x01	1
148	0x29	41
149	0x25	37
150	0x12	18
151	0xa8	-88
152	0x18	24
153	0xc9	-55
154	0xca	-54
155	0xb0	-80
156	0xb0	-80
157	0xd8	-40
158	0x9d	-99
159	0x3a	58
160	0x0c	12
161	0x66	102
162	0x17	23
163	0x94	-108
164	0x25	37
165	0xd8	-40
166	0xfb	-5
167	0x2e	46
168	0xdc	-36
169	0xe8	-24
170	0xe2	-30
171	0x20	32
172	0xe4	-28
173	0xe3	-29
174	0xde	-34
175	0xf6	-10
176	0x66	102
177	0x67	103
178	0xb8	-72
179	0x28	40
180	0xec	-20
181	0xeb	-21
182	0xcd	-51
183	0xed	-19
184	0x2e	46
185	0x2c	44
186	0x22	34
187	0x08	8
188	0x0f	15
189	0xda	-38
190	0x3c	60
191	0x90	-112
192	0x05	5
193	0x3a	58
194	0x6b	107
195	0x35	53
196	0x0f	15
197	0x2e	46
198	0xd1	-47
199	0x44	68
200	0xca	-54
201	0x08	8
202	0x20	32
203	0x11	17
204	0xeb	-21
205	0xf6	-10
206	0x11	17
207	0xd1	-47
208	0xad	-83
209	0xe6	-26
210	0xe1	-31
211	0xb2	-78
212	0xc5	-59
213	0xf5	-11
214	0xe9	-23
215	0x03	3
216	0x01	1
217	0x18	24
218	0x0a	10
219	0x1a	26
220	0x07	7
221	0xf2	-14
222	0x0b	11
223	0x05	5
224	0xee	-18
225	0xf4	-12
226	0xee	-18
227	0xf1	-15
228	0x0b	11
229	0xf2	-14
230	0xf0	-16
231	0x15	21
232	0x18	24
233	0x09	9
234	0xdb	-37
235	0x31	49
236	0x14	20
237	0x3c	60
238	0x13	19
239	0x0d	13
240	0xc8	-56
241	0xf4	-12
242	0xfc	-4
243	0xce	-50
244	0xd1	-47
245	0xe2	-30
246	0x02	2
247	0xb4	-76
248	0xdb	-37
249	0xb5	-75
250	0x15	21
251	0xa1	-95
252	0xbd	-67
253	0x02	2
254	0x09	9
255	0xfe	-2

tfl.pseudo_qconst24 i1 [1, 14, 1, 64] scale=0.041953467 zero_point=-128
0	0x80	0.0
1	0x80	0.0
2	0x80	0.0
3	0x80	0.0
4	0x80	0.0
5	0x80	0.0
6	0x80	0.0
7	0x80	0.0
8	0x80	0.0
9	0x80	0.0
10	0x80	0.0
11	0x80	0.0
12	0x80	0.0
13	0x80	0.0
14	0x80	0.0
15	0x80	0.0
16	0x80	0.0
17	0x80	0.0
18	0x80	0.0
19	0x80	0.0
20	0x80	0.0
21	0x80	0.0
22	0x80	0.0
23	0x80	0.0
24	0x80	0.0
25	0x80	0.0
26	0x80	0.0
27	0x80	0.0
28	0x80	0.0
29	0x80	0.0
30	0x80	0.0
31	0x80	0.0
32	0x80	0.0
33	0x80	0.0
34	0x80	0.0
35	0x80	0.0
36	0x80	0.0
37	0x80	0.0
38	0x80	0.0
39	0x80	0.0
40	0x80	0.0
41	0x80	0.0
42	0x80	0.0
43	0x80	0.0
44	0x80	0.0
45	0x80	0.0
46	0x80	0.0
47	0x80	0.0
48	0x80	0.0
49	0x80	0.0
50	0x80	0.0
51	0x80	0.0
52	0x80	0.0
53	0x80	0.0
54	0x80	0.0
55	0x80	0.0
56	0x80	0.0
57	0x80	0.0
58	0x80	0.0
59	0x80	0.0
60	0x80	0.0
61	0x80	0.0
62	0x80	0.0
63	0x80	0.0
64	0x80	0.0
65	0x80	0.0
66	0x80	0.0
67	0x80	0.0
68	0x80	0.0
69	0x80	0.0
70	0x80	0.0
71	0x80	0.0
72	0x80	0.0
73	0x80	0.0
74	0x80	0.0
75	0x80	0.0
76	0x80	0.0
77	0x80	0.0
78	0x80	0.0
79	0x80	0.0
80	0x80	0.0
81	0x80	0.0
82	0x80	0.0
83	0x80	0.0
84	0x80	0.0
85	0x80	0.0
86	0x80	0.0
87	0x80	0.0
88	0x80	0.0
89	0x80	0.0
90	0x80	0.0
91	0x80	0.0
92	0x80	0.0
93	0x80	0.0
94	0x80	0.0
95	0x80	0.0
96	0x80	0.0
97	0x80	0.0
98	0x80	0.0
99	0x80	0.0
100	0x80	0.0
101	0x80	0.0
102	0x80	0.0
103	0x80	0.0
104	0x80	0.0
105	0x80	0.0
106	0x80	0.0
107	0x80	0.0
108	0x80	0.0
109	0x80	0.0
110	0x80	0.0
111	0x80	0.0
112	0x80	0.0
113	0x80	0.0
114	0x80	0.0
115	0x80	0.0
116	0x80	0.0
117	0x80	0.0
118	0x80	0.0
119	0x80	0.0
120	0x80	0.0
121	0x80	0.0
122	0x80	0.0
123	0x80	0.0
124	0x80	0.0
125	0x80	0.0
126	0x80	0.0
127	0x80	0.0
128	0x80	0.0
129	0x80	0.0
130	0x80	0.0
131	0x80	0.0
132	0x80	0.0
133	0x80	0.0
134	0x80	0.0
135	0x80	0.0
136	0x80	0.0
137	0x80	0.0
138	0x80	0.0
139	0x80	0.0
140	0x80	0.0
141	0x80	0.0
142	0x80	0.0
143	0x80	0.0
144	0x80	0.0
145	0x80	0.0
146	0x80	0.0
147	0x80	0.0
148	0x80	0.0
149	0x80	0.0
150	0x80	0.0
151	0x80	0.0
152	0x80	0.0
153	0x80	0.0
154	0x80	0.0
155	0x80	0.0
156	0x80	0.0
157	0x80	0.0
158	0x80	0.0
159	0x80	0.0
160	0x80	0.0
161	0x80	0.0
162	0x80	0.0
163	0x80	0.0
164	0x80	0.0
165	0x80	0.0
166	0x80	0.0
167	0x80	0.0
168	0x80	0.0
169	0x80	0.0
170	0x80	0.0
171	0x80	0.0
172	0x80	0.0
173	0x80	0.0
174	0x80	0.0
175	0x80	0.0
176	0x80	0.0
177	0x80	0.0
178	0x80	0.0
179	0x80	0.0
180	0x80	0.0
181	0x80	0.0
182	0x80	0.0
183	0x80	0.0
184	0x80	0.0
185	0x80	0.0
186	0x80	0.0
187	0x80	0.0
188	0x80	0.0
189	0x80	0.0
190	0x80	0.0
191	0x80	0.0
192	0x80	0.0
193	0x80	0.0
194	0x80	0.0
195	0x80	0.0
196	0x80	0.0
197	0x80	0.0
198	0x80	0.0
199	0x80	0.0
200	0x80	0.0
201	0x80	0.0
202	0x80	0.0
203	0x80	0.0
204	0x80	0.0
205	0x80	0.0
206	0x80	0.0
207	0x80	0.0
208	0x80	0.0
209	0x80	0.0
210	0x80	0.0
211	0x80	0.0
212	0x80	0.0
213	0x80	0.0
214	0x80	0.0
215	0x80	0.0
216	0x80	0.0
217	0x80	0.0
218	0x80	0.0
219	0x80	0.0
220	0x80	0.0
221	0x80	0.0
222	0x80	0.0
223	0x80	0.0
224	0x80	0.0
225	0x80	0.0
226	0x80	0.0
227	0x80	0.0
228	0x80	0.0
229	0x80	0.0
230	0x80	0.0
231	0x80	0.0
232	0x80	0.0
233	0x80	0.0
234	0x80	0.0
235	0x80	0.0
236	0x80	0.0
237	0x80	0.0
238	0x80	0.0
239	0x80	0.0
240	0x80	0.0
241	0x80	0.0
242	0x80	0.0
243	0x80	0.0
244	0x80	0.0
245	0x80	0.0
246	0x80	0.0
247	0x80	0.0
248	0x80	0.0
249	0x80	0.0
250	0x80	0.0
251	0x80	0.0
252	0x80	0.0
253	0x80	0.0
254	0x80	0.0
255	0x80	0.0

tfl.pseudo_qconst25 i1 [1, 10, 1, 64] scale=0.03692832 zero_point=-128
0	0x80	0.0
1	0x80	0.0
2	0x80	0.0
3	0x80	0.0
4	0x80	0.0
5	0x80	0.0
6	0x80	0.0
7	0x80	0.0
8	0x80	0.0
9	0x80	0.0
10	0x80	0.0
11	0x80	0.0
12	0x80	0.0
13	0x80	0.0
14	0x80	0.0
15	0x80	0.0
16	0x80	0.0
17	0x80	0.0
18	0x80	0.0
19	0x80	0.0
20	0x80	0.0
21	0x80	0.0
22	0x80	0.0
23	0x80	0.0
24	0x80	0.0
25	0x80	0.0
26	0x80	0.0
27	0x80	0.0
28	0x80	0.0
29	0x80	0.0
30	0x80	0.0
31	0x80	0.0
32	0x80	0.0
33	0x80	0.0
34	0x80	0.0
35	0x80	0.0
36	0x80	0.0
37	0x80	0.0
38	0x80	0.0
39	0x80	0.0
40	0x80	0.0
41	0x80	0.0
42	0x80	0.0
43	0x80	0.0
44	0x80	0.0
45	0x80	0.0
46	0x80	0.0
47	0x80	0.0
48	0x80	0.0
49	0x80	0.0
50	0x80	0.0
51	0x80	0.0
52	0x80	0.0
53	0x80	0.0
54	0x80	0.0
55	0x80	0.0
56	0x80	0.0
57	0x80	0.0
58	0x80	0.0
59	0x80	0.0
60	0x80	0.0
61	0x80	0.0
62	0x80	0.0
63	0x80	0.0
64	0x80	0.0
65	0x80	0.0
66	0x80	0.0
67	0x80	0.0
68	0x80	0.0
69	0x80	0.0
70	0x80	0.0
71	0x80	0.0
72	0x80	0.0
73	0x80	0.0
74	0x80	0.0
75	0x80	0.0
76	0x80	0.0
77	0x80	0.0
78	0x80	0.0
79	0x80	0.0
80	0x80	0.0
81	0x80	0.0
82	0x80	0.0
83	0x80	0.0
84	0x80	0.0
85	0x80	0.0
86	0x80	0.0
87	0x80	0.0
88	0x80	0.0
89	0x80	0.0
90	0x80	0.0
91	0x80	0.0
92	0x80	0.0
93	0x80	0.0
94	0x80	0.0
95	0x80	0.0
96	0x80	0.0
97	0x80	0.0
98	0x80	0.0
99	0x80	0.0
100	0x80	0.0
101	0x80	0.0
102	0x80	0.0
103	0x80	0.0
104	0x80	0.0
105	0x80	0.0
106	0x80	0.0
107	0x80	0.0
108	0x80	0.0
109	0x80	0.0
110	0x80	0.0
111	0x80	0.0
112	0x80	0.0
113	0x80	0.0
114	0x80	0.0
115	0x80	0.0
116	0x80	0.0
117	0x80	0.0
118	0x80	0.0
119	0x80	0.0
120	0x80	0.0
121	0x80	0.0
122	0x80	0.0
123	0x80	0.0
124	0x80	0.0
125	0x80	0.0
126	0x80	0.0
127	0x80	0.0
128	0x80	0.0
129	0x80	0.0
130	0x80	0.0
131	0x80	0.0
132	0x80	0.0
133	0x80	0.0
134	0x80	0.0
135	0x80	0.0
136	0x80	0.0
137	0x80	0.0
138	0x80	0.0
139	0x80	0.0
140	0x80	0.0
141	0x80	0.0
142	0x80	0.0
143	0x80	0.0
144	0x80	0.0
145	0x80	0.0
146	0x80	0.0
147	0x80	0.0
148	0x80	0.0
149	0x80	0.0
150	0x80	0.0
151	0x80	0.0
152	0x80	0.0
153	0x80	0.0
154	0x80	0.0
155	0x80	0.0
156	0x80	0.0
157	0x80	0.0
158	0x80	0.0
159	0x80	0.0
160	0x80	0.0
161	0x80	0.0
162	0x80	0.0
163	0x80	0.0
164	0x80	0.0
165	0x80	0.0
166	0x80	0.0
167	0x80	0.0
168	0x80	0.0
169	0x80	0.0
170	0x80	0.0
171	0x80	0.0
172	0x80	0.0
173	0x80	0.0
174	0x80	0.0
175	0x80	0.0
176	0x80	0.0
177	0x80	0.0
178	0x80	0.0
179	0x80	0.0
180	0x80	0.0
181	0x80	0.0
182	0x80	0.0
183	0x80	0.0
184	0x80	0.0
185	0x80	0.0
186	0x80	0.0
187	0x80	0.0
188	0x80	0.0
189	0x80	0.0
190	0x80	0.0
191	0x80	0.0
192	0x80	0.0
193	0x80	0.0
194	0x80	0.0
195	0x80	0.0
196	0x80	0.0
197	0x80	0.0
198	0x80	0.0
199	0x80	0.0
200	0x80	0.0
201	0x80	0.0
202	0x80	0.0
203	0x80	0.0
204	0x80	0.0
205	0x80	0.0
206	0x80	0.0
207	0x80	0.0
208	0x80	0.0
209	0x80	0.0
210	0x80	0.0
211	0x80	0.0
212	0x80	0.0
213	0x80	0.0
214	0x80	0.0
215	0x80	0.0
216	0x80	0.0
217	0x80	0.0
218	0x80	0.0
219	0x80	0.0
220	0x80	0.0
221	0x80	0.0
222	0x80	0.0
223	0x80	0.0
224	0x80	0.0
225	0x80	0.0
226	0x80	0.0
227	0x80	0.0
228	0x80	0.0
229	0x80	0.0
230	0x80	0.0
231	0x80	0.0
232	0x80	0.0
233	0x80	0.0
234	0x80	0.0
235	0x80	0.0
236	0x80	0.0
237	0x80	0.0
238	0x80	0.0
239	0x80	0.0
240	0x80	0.0
241	0x80	0.0
242	0x80	0.0
243	0x80	0.0
244	0x80	0.0
245	0x80	0.0
246	0x80	0.0
247	0x80	0.0
248	0x80	0.0
249	0x80	0.0
250	0x80	0.0
251	0x80	0.0
252	0x80	0.0
253	0x80	0.0
254	0x80	0.0
255	0x80	0.0

tfl.pseudo_qconst26 i1 [1, 4, 1, 32] scale=0.72157174 zero_point=-128
0	0x80	0.0
1	0x80	0.0
2	0x80	0.0
3	0x80	0.0
4	0x80	0.0
5	0x80	0.0
6	0x80	0.0
7	0x80	0.0
8	0x80	0.0
9	0x80	0.0
10	0x80	0.0
11	0x80	0.0
12	0x80	0.0
13	0x80	0.0
14	0x80	0.0
15	0x80	0.0
16	0x80	0.0
17	0x80	0.0
18	0x80	0.0
19	0x80	0.0
20	0x80	0.0
21	0x80	0.0
22	0x80	0.0
23	0x80	0.0
24	0x80	0.0
25	0x80	0.0
26	0x80	0.0
27	0x80	0.0
28	0x80	0.0
29	0x80	0.0
30	0x80	0.0
31	0x80	0.0
32	0x80	0.0
33	0x80	0.0
34	0x80	0.0
35	0x80	0.0
36	0x80	0.0
37	0x80	0.0
38	0x80	0.0
39	0x80	0.0
40	0x80	0.0
41	0x80	0.0
42	0x80	0.0
43	0x80	0.0
44	0x80	0.0
45	0x80	0.0
46	0x80	0.0
47	0x80	0.0
48	0x80	0.0
49	0x80	0.0
50	0x80	0.0
51	0x80	0.0
52	0x80	0.0
53	0x80	0.0
54	0x80	0.0
55	0x80	0.0
56	0x80	0.0
57	0x80	0.0
58	0x80	0.0
59	0x80	0.0
60	0x80	0.0
61	0x80	0.0
62	0x80	0.0
63	0x80	0.0
64	0x80	0.0
65	0x80	0.0
66	0x80	0.0
67	0x80	0.0
68	0x80	0.0
69	0x80	0.0
70	0x80	0.0
71	0x80	0.0
72	0x80	0.0
73	0x80	0.0
74	0x80	0.0
75	0x80	0.0
76	0x80	0.0
77	0x80	0.0
78	0x80	0.0
79	0x80	0.0
80	0x80	0.0
81	0x80	0.0
82	0x80	0.0
83	0x80	0.0
84	0x80	0.0
85	0x80	0.0
86	0x80	0.0
87	0x80	0.0
88	0x80	0.0
89	0x80	0.0
90	0x80	0.0
91	0x80	0.0
92	0x80	0.0
93	0x80	0.0
94	0x80	0.0
95	0x80	0.0
96	0x80	0.0
97	0x80	0.0
98	0x80	0.0
99	0x80	0.0
100	0x80	0.0
101	0x80	0.0
102	0x80	0.0
103	0x80	0.0
104	0x80	0.0
105	0x80	0.0
106	0x80	0.0
107	0x80	0.0
108	0x80	0.0
109	0x80	0.0
110	0x80	0.0
111	0x80	0.0
112	0x80	0.0
113	0x80	0.0
114	0x80	0.0
115	0x80	0.0
116	0x80	0.0
117	0x80	0.0
118	0x80	0.0
119	0x80	0.0
120	0x80	0.0
121	0x80	0.0
122	0x80	0.0
123	0x80	0.0
124	0x80	0.0
125	0x80	0.0
126	0x80	0.0
127	0x80	0.0

tfl.pseudo_qconst27 i1 [1, 2, 1, 40] scale=0.101960786 zero_point=-128
0	0x80	0.0
1	0x80	0.0
2	0x80	0.0
3	0x80	0.0
4	0x80	0.0
5	0x80	0.0
6	0x80	0.0
7	0x80	0.0
8	0x80	0.0
9	0x80	0.0
10	0x80	0.0
11	0x80	0.0
12	0x80	0.0
13	0x80	0.0
14	0x80	0.0
15	0x80	0.0
16	0x80	0.0
17	0x80	0.0
18	0x80	0.0
19	0x80	0.0
20	0x80	0.0
21	0x80	0.0
22	0x80	0.0
23	0x80	0.0
24	0x80	0.0
25	0x80	0.0
26	0x80	0.0
27	0x80	0.0
28	0x80	0.0
29	0x80	0.0
30	0x80	0.0
31	0x80	0.0
32	0x80	0.0
33	0x80	0.0
34	0x80	0.0
35	0x80	0.0
36	0x80	0.0
37	0x80	0.0
38	0x80	0.0
39	0x80	0.0
40	0x80	0.0
41	0x80	0.0
42	0x80	0.0
43	0x80	0.0
44	0x80	0.0
45	0x80	0.0
46	0x80	0.0
47	0x80	0.0
48	0x80	0.0
49	0x80	0.0
50	0x80	0.0
51	0x80	0.0
52	0x80	0.0
53	0x80	0.0
54	0x80	0.0
55	0x80	0.0
56	0x80	0.0
57	0x80	0.0
58	0x80	0.0
59	0x80	0.0
60	0x80	0.0
61	0x80	0.0
62	0x80	0.0
63	0x80	0.0
64	0x80	0.0
65	0x80	0.0
66	0x80	0.0
67	0x80	0.0
68	0x80	0.0
69	0x80	0.0
70	0x80	0.0
71	0x80	0.0
72	0x80	0.0
73	0x80	0.0
74	0x80	0.0
75	0x80	0.0
76	0x80	0.0
77	0x80	0.0
78	0x80	0.0
79	0x80	0.0

tfl.pseudo_qconst28 i1 [1, 16, 1, 64] scale=0.032679666 zero_point=-128
0	0x80	0.0
1	0x80	0.0
2	0x80	0.0
3	0x80	0.0
4	0x80	0.0
5	0x80	0.0
6	0x80	0.0
7	0x80	0.0
8	0x80	0.0
9	0x80	0.0
10	0x80	0.0
11	0x80	0.0
12	0x80	0.0
13	0x80	0.0
14	0x80	0.0
15	0x80	0.0
16	0x80	0.0
17	0x80	0.0
18	0x80	0.0
19	0x80	0.0
20	0x80	0.0
21	0x80	0.0
22	0x80	0.0
23	0x80	0.0
24	0x80	0.0
25	0x80	0.0
26	0x80	0.0
27	0x80	0.0
28	0x80	0.0
29	0x80	0.0
30	0x80	0.0
31	0x80	0.0
32	0x80	0.0
33	0x80	0.0
34	0x80	0.0
35	0x80	0.0
36	0x80	0.0
37	0x80	0.0
38	0x80	0.0
39	0x80	0.0
40	0x80	0.0
41	0x80	0.0
42	0x80	0.0
43	0x80	0.0
44	0x80	0.0
45	0x80	0.0
46	0x80	0.0
47	0x80	0.0
48	0x80	0.0
49	0x80	0.0
50	0x80	0.0
51	0x80	0.0
52	0x80	0.0
53	0x80	0.0
54	0x80	0.0
55	0x80	0.0
56	0x80	0.0
57	0x80	0.0
58	0x80	0.0
59	0x80	0.0
60	0x80	0.0
61	0x80	0.0
62	0x80	0.0
63	0x80	0.0
64	0x80	0.0
65	0x80	0.0
66	0x80	0.0
67	0x80	0.0
68	0x80	0.0
69	0x80	0.0
70	0x80	0.0
71	0x80	0.0
72	0x80	0.0
73	0x80	0.0
74	0x80	0.0
75	0x80	0.0
76	0x80	0.0
77	0x80	0.0
78	0x80	0.0
79	0x80	0.0
80	0x80	0.0
81	0x80	0.0
82	0x80	0.0
83	0x80	0.0
84	0x80	0.0
85	0x80	0.0
86	0x80	0.0
87	0x80	0.0
88	0x80	0.0
89	0x80	0.0
90	0x80	0.0
91	0x80	0.0
92	0x80	0.0
93	0x80	0.0
94	0x80	0.0
95	0x80	0.0
96	0x80	0.0
97	0x80	0.0
98	0x80	0.0
99	0x80	0.0
100	0x80	0.0
101	0x80	0.0
102	0x80	0.0
103	0x80	0.0
104	0x80	0.0
105	0x80	0.0
106	0x80	0.0
107	0x80	0.0
108	0x80	0.0
109	0x80	0.0
110	0x80	0.0
111	0x80	0.0
112	0x80	0.0
113	0x80	0.0
114	0x80	0.0
115	0x80	0.0
116	0x80	0.0
117	0x80	0.0
118	0x80	0.0
119	0x80	0.0
120	0x80	0.0
121	0x80	0.0
122	0x80	0.0
123	0x80	0.0
124	0x80	0.0
125	0x80	0.0
126	0x80	0.0
127	0x80	0.0
128	0x80	0.0
129	0x80	0.0
130	0x80	0.0
131	0x80	0.0
132	0x80	0.0
133	0x80	0.0
134	0x80	0.0
135	0x80	0.0
136	0x80	0.0
137	0x80	0.0
138	0x80	0.0
139	0x80	0.0
140	0x80	0.0
141	0x80	0.0
142	0x80	0.0
143	0x80	0.0
144	0x80	0.0
145	0x80	0.0
146	0x80	0.0
147	0x80	0.0
148	0x80	0.0
149	0x80	0.0
150	0x80	0.0
151	0x80	0.0
152	0x80	0.0
153	0x80	0.0
154	0x80	0.0
155	0x80	0.0
156	0x80	0.0
157	0x80	0.0
158	0x80	0.0
159	0x80	0.0
160	0x80	0.0
161	0x80	0.0
162	0x80	0.0
163	0x80	0.0
164	0x80	0.0
165	0x80	0.0
166	0x80	0.0
167	0x80	0.0
168	0x80	0.0
169	0x80	0.0
170	0x80	0.0
171	0x80	0.0
172	0x80	0.0
173	0x80	0.0
174	0x80	0.0
175	0x80	0.0
176	0x80	0.0
177	0x80	0.0
178	0x80	0.0
179	0x80	0.0
180	0x80	0.0
181	0x80	0.0
182	0x80	0.0
183	0x80	0.0
184	0x80	0.0
185	0x80	0.0
186	0x80	0.0
187	0x80	0.0
188	0x80	0.0
189	0x80	0.0
190	0x80	0.0
191	0x80	0.0
192	0x80	0.0
193	0x80	0.0
194	0x80	0.0
195	0x80	0.0
196	0x80	0.0
197	0x80	0.0
198	0x80	0.0
199	0x80	0.0
200	0x80	0.0
201	0x80	0.0
202	0x80	0.0
203	0x80	0.0
204	0x80	0.0
205	0x80	0.0
206	0x80	0.0
207	0x80	0.0
208	0x80	0.0
209	0x80	0.0
210	0x80	0.0
211	0x80	0.0
212	0x80	0.0
213	0x80	0.0
214	0x80	0.0
215	0x80	0.0
216	0x80	0.0
217	0x80	0.0
218	0x80	0.0
219	0x80	0.0
220	0x80	0.0
221	0x80	0.0
222	0x80	0.0
223	0x80	0.0
224	0x80	0.0
225	0x80	0.0
226	0x80	0.0
227	0x80	0.0
228	0x80	0.0
229	0x80	0.0
230	0x80	0.0
231	0x80	0.0
232	0x80	0.0
233	0x80	0.0
234	0x80	0.0
235	0x80	0.0
236	0x80	0.0
237	0x80	0.0
238	0x80	0.0
239	0x80	0.0
240	0x80	0.0
241	0x80	0.0
242	0x80	0.0
243	0x80	0.0
244	0x80	0.0
245	0x80	0.0
246	0x80	0.0
247	0x80	0.0
248	0x80	0.0
249	0x80	0.0
250	0x80	0.0
251	0x80	0.0
252	0x80	0.0
253	0x80	0.0
254	0x80	0.0
255	0x80	0.0
