okay_google.tflite (tflite, 60928 bytes, 18 tensors)

tfl.pseudo_qconst1 i1 [1, 1088] scale=0.002271304 zero_point=0
0.013627823 -0.08403824 0.05223999 -0.0590539 -0.25665733 -0.088580854 -0.2362156 -0.013627823
-0.19987474 -0.024984343 -0.14082085 -0.16353388 -0.038612165 -0.19987474 -0.088580854 -0.06586781
0.16126257 -0.07722433 -0.09766607 0.12492172 0.049968686 -0.04769738 -0.13400693 0.04088347
0.088580854 -0.13627824 -0.04088347 0.04542608 -0.12719302 -0.14082085 -0.2884556 -0.13627824
-0.09539476 -0.06359651 -0.10902259 0.009085216 0.02271304 -0.11129389 -0.09766607 -0.16126257
0.015899127 -0.038612165 0.07722433 0.07495303 -0.020441735 0.043154776 -0.06586781 0.06359651
0.009085216 -0.08176694 -0.11129389 -0.03406956 0.004542608 -0.106751285 -0.015899127 -0.03406956
-0.004542608 0.061325207 -0.061325207 -0.09312346 -0.07949564 -0.14309214 -0.07495303 -0.106751285
-0.01135652 -0.11129389 -0.07041042 -0.06813912 -0.179433 -0.024984343 -0.21804518 -0.015899127
-0.19987474 -0.004542608 -0.07722433 0.0 -0.09085216 -0.08630955 -0.04769738 -0.12946433
0.10902259 -0.18851823 -0.04088347 0.08630955 -0.04088347 -0.027255647 -0.13173562 0.013627823
0.08176694 0.002271304 -0.038612165 0.04088347 0.013627823 -0.06359651 -0.2294017 -0.10447998
0.01135652 -0.1181078 -0.043154776 -0.07722433 0.015899127 -0.04088347 -0.015899127 -0.13173562
-0.036340863 0.004542608 0.0 0.088580854 -0.015899127 0.004542608 -0.061325207 0.04769738
0.015899127 -0.061325207 -0.09085216 -0.02952695 -0.020441735 -0.17716171 0.02271304 -0.106751285
0.061325207 0.027255647 -0.14763476 -0.02952695 -0.09085216 -0.13627824 -0.027255647 -0.102208674
-0.04088347 -0.04088347 0.038612165 0.020441735 -0.22485909 -0.0590539 -0.22485909 -0.04088347
-0.19987474 0.06586781 0.054511294 -0.061325207 -0.08403824 -0.06359651 -0.2362156 -0.16126257
0.11356519 -0.088580854 -0.004542608 0.061325207 -0.072681725 -0.06359651 -0.14082085 0.04542608
0.10447998 -0.06813912 -0.14309214 0.06359651 -0.09539476 -0.10447998 -0.17716171 -0.09539476
0.0590539 -0.04542608 0.009085216 -0.018170431 0.031798255 0.002271304 0.002271304 -0.09766607
-0.09766607 -0.043154776 -0.10447998 0.024984343 -0.009085216 -0.054511294 -0.004542608 -0.06586781
-0.10447998 -0.09993737 -0.13627824 -0.049968686 -0.015899127 -0.16580519 0.013627823 -0.024984343
0.01135652 -0.020441735 -0.02952695 0.08176694 -0.031798255 -0.05223999 0.002271304 0.002271304
-0.07949564 -0.004542608 0.0590539 -0.056782596 -0.13854954 -0.06813912 -0.15217736 0.0
-0.056782596 0.009085216 -0.06359651 -0.02271304 -0.03406956 -0.043154776 -0.14990605 -0.12946433
0.03406956 -0.038612165 -0.018170431 -0.024984343 -0.020441735 -0.07495303 -0.11356519 0.020441735
0.04088347 -0.13854954 -0.10447998 0.07722433 -0.1158365 -0.09312346 -0.14082085 -0.13173562
-0.072681725 -0.06813912 -0.088580854 0.009085216 0.06813912 0.031798255 -0.0068139117 -0.13400693
-0.14082085 -0.054511294 -0.07949564 0.020441735 0.02952695 0.07722433 0.038612165 -0.07722433
-0.049968686 -0.02271304 -0.08403824 -0.07041042 -0.14536345 -0.0590539 -0.020441735 -0.04088347
-0.07722433 0.049968686 0.049968686 0.009085216 -0.031798255 -0.015899127 0.02952695 -0.04542608
00000000: 06db 17e6 8fd9 98fa a8f5 c2b8 efa8 d9e3
00000010: 47de d537 16eb c512 27c4 ee14 c8c2 81c4
00000020: d6e4 d004 0acf d5b9 07ef 2221 f713 e31c
00000030: 04dc cff1 02d1 f9f1 fe1b e5d7 ddc1 dfd1
00000040: fbcf e1e2 b1f5 a0f9 a8fe de00 d8da ebc7
00000050: 30ad ee26 eef4 c606 2401 ef12 06e4 9bd2
00000060: 05cc edde 07ee f9c6 f002 0027 f902 e515
00000070: 07e5 d8f3 f7b2 0ad1 1b0c bff3 d8c4 f4d3
00000080: eeee 1109 9de6 9dee a81d 18e5 dbe4 98b9
00000090: 32d9 fe1b e0e4 c214 2ee2 c11c d6d2 b2d6
000000a0: 1aec 04f8 0e01 01d5 d5ed d20b fce8 fee3
000000b0: d2d4 c4ea f9b7 06f5 05f7 f324 f2e9 0101
000000c0: ddfe 1ae7 c3e2 bd00 e704 e4f6 f1ed bec7
000000d0: 0fef f8f5 f7df ce09 12c3 d222 cdd7 c2c6
000000e0: e0e2 d904 1e0e fdc5 c2e8 dd09 0d22 11de
000000f0: eaf6 dbe1 c0e6 f7ee de16 1604 f2f9 0dec

tfl.pseudo_qconst3 i1 [64, 1, 1, 64]
38 68 19 10 -8 -75 -68 62
19 76 -25 -36 105 101 85 16
-11 10 -6 -6 -54 14 -2 -31
6 32 -29 27 56 -127 -42 -27
79 35 -33 36 72 24 90 11
-43 41 -38 52 -55 -7 13 40
91 -43 69 27 7 -8 58 63
51 -63 -75 -44 -2 10 -72 67
51 42 48 -46 -39 -23 -62 -64
-48 -26 -44 -14 36 -32 53 -4
64 -19 -12 24 -56 19 -6 22
4 33 61 51 -13 -27 -66 -67
-33 10 -55 11 -35 -78 127 -24
-40 37 -31 -48 11 -74 67 26
27 48 -16 11 59 62 52 4
78 -71 1 12 -19 -19 9 18
-63 -26 -6 -3 -16 -20 37 -61
60 24 -73 40 -36 53 -24 43
5 -22 2 -84 -46 -15 -27 -1
-8 -24 -3 48 -41 79 44 -115
127 -40 -37 103 12 7 -65 -44
-8 99 -48 56 -61 -9 89 -67
-100 -124 30 6 -34 53 -34 -27
75 -103 -58 5 -41 43 8 -27
-97 90 10 5 16 16 25 21
117 -27 -53 -52 37 21 -19 59
-27 -13 70 53 -22 4 -34 -60
9 -38 42 -3 8 -30 -25 -44
-68 21 13 73 -52 57 127 -51
60 -35 -52 -42 -87 -53 -31 57
-12 -28 16 -51 47 20 15 -77
36 -27 13 -69 -79 4 -2 47
00000000: 2644 130a f8b5 bc3e 134c e7dc 6965 5510
00000010: f50a fafa ca0e fee1 0620 e31b 3881 d6e5
00000020: 4f23 df24 4818 5a0b d529 da34 c9f9 0d28
00000030: 5bd5 451b 07f8 3a3f 33c1 b5d4 fe0a b843
00000040: 332a 30d2 d9e9 c2c0 d0e6 d4f2 24e0 35fc
00000050: 40ed f418 c813 fa16 0421 3d33 f3e5 bebd
00000060: df0a c90b ddb2 7fe8 d825 e1d0 0bb6 431a
00000070: 1b30 f00b 3b3e 3404 4eb9 010c eded 0912
00000080: c1e6 fafd f0ec 25c3 3c18 b728 dc35 e82b
00000090: 05ea 02ac d2f1 e5ff f8e8 fd30 d74f 2c8d
000000a0: 7fd8 db67 0c07 bfd4 f863 d038 c3f7 59bd
000000b0: 9c84 1e06 de35 dee5 4b99 c605 d72b 08e5
000000c0: 9f5a 0a05 1010 1915 75e5 cbcc 2515 ed3b
000000d0: e5f3 4635 ea04 dec4 09da 2afd 08e2 e7d4
000000e0: bc15 0d49 cc39 7fcd 3cdd ccd6 a9cb e139
000000f0: f4e4 10cd 2f14 0fb3 24e5 0dbb b104 fe2f

tfl.pseudo_qconst5 i1 [1, 23, 1, 64]
127 -39 -33 -17 28 -37 50 -39
127 23 81 6 4 -71 -39 114
127 16 39 -30 -89 -2 -127 -82
-34 -78 -77 10 -66 -37 -32 -34
-8 28 31 120 -80 -108 -5 -101
-127 118 -23 56 62 -15 -39 5
14 -53 127 67 39 72 29 -13
-127 -31 -127 72 127 -85 -85 51
87 29 4 -14 83 -29 110 -33
57 47 51 -115 -12 -47 -15 127
53 -35 14 -28 -41 1 31 -16
-78 33 -65 115 -27 -25 48 -27
21 -54 62 127 -120 -107 50 -32
-87 89 30 48 110 -45 15 29
28 -29 122 56 35 74 127 -6
-73 -6 -77 54 2 6 -92 30
10 89 -16 4 -1 -127 17 -49
-55 -84 -12 -127 1 -107 -23 -15
52 29 -73 13 -48 27 67 26
32 -24 -43 124 68 -92 18 11
-30 -39 70 126 -105 -99 44 -77
5 83 -45 31 24 -103 127 -53
-27 -7 -1 -11 -75 127 -9 27
75 68 -23 25 17 16 -55 69
18 120 -36 21 127 -45 49 -26
-118 -25 -108 -26 8 -89 -2 4
1 92 -110 -36 95 4 22 44
127 -90 -56 -15 56 -127 -3 56
-57 19 120 64 -127 -19 -10 -32
88 -44 30 20 119 18 84 -32
13 -22 39 -12 -127 109 8 24
32 127 4 -27 54 59 -12 18
00000000: 7fd9 dfef 1cdb 32d9 7f17 5106 04b9 d972
00000010: 7f10 27e2 a7fe 81ae deb2 b30a bedb e0de
00000020: f81c 1f78 b094 fb9b 8176 e938 3ef1 d905
00000030: 0ecb 7f43 2748 1df3 81e1 8148 7fab ab33
00000040: 571d 04f2 53e3 6edf 392f 338d f4d1 f17f
00000050: 35dd 0ee4 d701 1ff0 b221 bf73 e5e7 30e5
00000060: 15ca 3e7f 8895 32e0 a959 1e30 6ed3 0f1d
00000070: 1ce3 7a38 234a 7ffa b7fa b336 0206 a41e
00000080: 0a59 f004 ff81 11cf c9ac f481 0195 e9f1
00000090: 341d b70d d01b 431a 20e8 d57c 44a4 120b
000000a0: e2d9 467e 979d 2cb3 0553 d31f 1899 7fcb
000000b0: e5f9 fff5 b57f f71b 4b44 e919 1110 c945
000000c0: 1278 dc15 7fd3 31e6 8ae7 94e6 08a7 fe04
000000d0: 015c 92dc 5f04 162c 7fa6 c8f1 3881 fd38
000000e0: c713 7840 81ed f6e0 58d4 1e14 7712 54e0
000000f0: 0dea 27f4 816d 0818 207f 04e5 363b f412

tfl.pseudo_qconst7 i1 [64, 1, 1, 64]
26 -5 42 -50 -60 37 43 -33
-50 -24 -16 -28 -2 -61 23 127
0 -3 27 -21 -21 -24 25 -24
-42 31 39 20 -54 25 51 96
-22 -23 -25 -23 -88 50 -34 50
88 -31 -41 -1 -47 -50 11 -38
-54 -16 27 8 -26 -60 -71 49
19 -53 36 -67 -44 23 -48 34
55 91 87 107 51 -45 -72 74
73 39 33 -48 -110 -112 -89 55
-17 -24 -21 -2 45 40 33 18
62 -6 -89 -74 -82 -127 82 51
73 118 64 42 -19 -20 10 -8
14 105 39 -6 89 9 -18 86
-35 -25 -42 32 2 -44 0 58
-41 37 1 16 110 -43 90 6
-7 30 18 -40 16 -33 5 -2
12 110 -58 62 -30 -35 -50 47
39 -13 -72 -32 -23 -7 -14 -28
65 -57 -65 30 -20 16 4 -14
53 -23 -64 -22 107 6 70 50
76 -13 -7 -63 67 38 -101 -63
25 -30 -43 2 11 2 68 2
-33 87 -21 50 -48 117 -47 -127
6 20 13 -52 66 26 -86 10
-55 75 -41 127 -14 51 -4 -104
-1 92 28 65 -80 81 9 39
-29 22 82 23 51 18 -6 -37
-64 73 76 3 76 -57 -38 53
-63 92 45 80 30 -39 -5 -6
75 37 -101 -35 31 124 0 14
19 7 18 -21 41 2 59 -55
00000000: 1afb 2ace c425 2bdf cee8 f0e4 fec3 177f
00000010: 00fd 1beb ebe8 19e8 d61f 2714 ca19 3360
00000020: eae9 e7e9 a832 de32 58e1 d7ff d1ce 0bda
00000030: caf0 1b08 e6c4 b931 13cb 24bd d417 d022
00000040: 375b 576b 33d3 b84a 4927 21d0 9290 a737
00000050: efe8 ebfe 2d28 2112 3efa a7b6 ae81 5233
00000060: 4976 402a edec 0af8 0e69 27fa 5909 ee56
00000070: dde7 d620 02d4 003a d725 0110 6ed5 5a06
00000080: f91e 12d8 10df 05fe 0c6e c63e e2dd ce2f
00000090: 27f3 b8e0 e9f9 f2e4 41c7 bf1e ec10 04f2
000000a0: 35e9 c0ea 6b06 4632 4cf3 f9c1 4326 9bc1
000000b0: 19e2 d502 0b02 4402 df57 eb32 d075 d181
000000c0: 0614 0dcc 421a aa0a c94b d77f f233 fc98
000000d0: ff5c 1c41 b051 0927 e316 5217 3312 fadb
000000e0: c049 4c03 4cc7 da35 c15c 2d50 1ed9 fbfa
000000f0: 4b25 9bdd 1f7c 000e 1307 12eb 2902 3bc9

tfl.pseudo_qconst9 i1 [1, 15, 1, 32]
-48 -7 -92 71 -76 127 79 34
-90 81 26 -127 -127 75 28 60
40 20 -72 60 65 18 -46 -36
-126 50 91 27 -100 10 -17 91
8 -46 13 20 -127 97 15 -127
-47 4 -16 -127 2 13 41 92
99 83 -127 -21 3 52 54 -127
92 -5 -3 90 -127 34 67 -69
-43 -40 74 -3 -54 43 -30 -119
45 -59 -17 -120 -90 -22 -67 -44
-31 96 -7 -21 -19 127 82 -1
28 -35 73 -45 -10 -26 -22 -82
110 -10 -32 -93 -18 52 85 -56
98 -61 -93 -5 -79 99 -9 -2
36 74 -68 77 7 6 97 9
113 14 -108 -1 -125 109 -86 -74
127 -24 5 -13 -65 -13 60 -58
102 -17 2 61 -10 14 25 18
47 10 -80 50 15 41 127 -33
-35 -8 -84 -86 -91 111 70 -8
108 -44 127 -127 -51 -48 -14 -35
5 52 -96 67 -39 -82 18 -64
-90 -118 85 -38 35 -95 124 -8
-14 75 -77 0 -23 50 71 -31
19 30 -97 16 -26 -36 9 39
-33 -88 -97 -32 -50 -86 -19 -100
-36 -83 60 -39 -71 -63 20 -98
-127 -26 114 -127 -52 14 -6 18
-61 -3 -5 49 -80 -97 -16 67
61 -12 39 -20 -12 15 21 62
-41 -4 46 45 -45 -108 94 -11
14 -127 83 -106 54 72 -127 96
00000000: d0f9 a447 b47f 4f22 a651 1a81 814b 1c3c
00000010: 2814 b83c 4112 d2dc 8232 5b1b 9c0a ef5b
00000020: 08d2 0d14 8161 0f81 d104 f081 020d 295c
00000030: 6353 81eb 0334 3681 5cfb fd5a 8122 43bb
00000040: d5d8 4afd ca2b e289 2dc5 ef88 a6ea bdd4
00000050: e160 f9eb ed7f 52ff 1cdd 49d3 f6e6 eaae
00000060: 6ef6 e0a3 ee34 55c8 62c3 a3fb b163 f7fe
00000070: 244a bc4d 0706 6109 710e 94ff 836d aab6
00000080: 7fe8 05f3 bff3 3cc6 66ef 023d f60e 1912
00000090: 2f0a b032 0f29 7fdf ddf8 acaa a56f 46f8
000000a0: 6cd4 7f81 cdd0 f2dd 0534 a043 d9ae 12c0
000000b0: a68a 55da 23a1 7cf8 f24b b300 e932 47e1
000000c0: 131e 9f10 e6dc 0927 dfa8 9fe0 ceaa ed9c
000000d0: dcad 3cd9 b9c1 149e 81e6 7281 cc0e fa12
000000e0: c3fd fb31 b09f f043 3df4 27ec f40f 153e
000000f0: d7fc 2e2d d394 5ef5 0e81 5396 3648 8160

tfl.pseudo_qconst11 i1 [1, 9, 1, 32]
-71 -115 -127 -86 31 65 19 74
23 6 8 -127 127 56 60 46
-59 8 -40 87 -33 86 -127 -127
80 -94 -18 48 -36 -30 -89 -46
-127 115 -68 -127 0 -31 -11 127
75 -127 -110 -113 84 -21 15 31
86 45 -124 10 33 108 43 76
69 -9 22 74 -44 -114 50 -52
-89 92 42 -25 85 6 -40 91
93 -43 38 67 55 127 -65 58
127 -86 -52 -31 -35 -4 -24 37
3 -127 -21 127 -20 -4 12 -30
-58 127 29 -78 117 44 13 39
98 -92 99 42 104 70 -62 48
112 -39 122 -114 12 84 18 61
-6 52 -67 64 -75 -11 17 -7
-14 30 -82 -46 2 64 66 -78
11 89 91 27 -57 -64 -36 21
-55 -52 127 -79 -13 65 50 -75
-18 27 -16 -99 -84 -78 -50 -38
-20 -34 -89 -3 95 127 77 -96
-30 -29 21 64 -52 -43 127 53
-35 25 58 -124 46 -85 -45 19
-127 112 66 -19 -122 -31 -127 -64
75 110 -16 -27 38 104 -86 74
-111 109 -47 66 38 95 13 -73
123 -41 -43 -127 30 -127 19 -57
25 93 21 -64 -127 -31 88 -127
11 101 65 47 -124 84 -8 71
-127 -56 -78 13 104 78 64 -77
46 -127 -109 -97 -127 50 -70 22
77 65 127 -70 43 87 15 -91
00000000: b98d 81aa 1f41 134a 1706 0881 7f38 3c2e
00000010: c508 d857 df56 8181 50a2 ee30 dce2 a7d2
00000020: 8173 bc81 00e1 f57f 4b81 928f 54eb 0f1f
00000030: 562d 840a 216c 2b4c 45f7 164a d48e 32cc
00000040: a75c 2ae7 5506 d85b 5dd5 2643 377f bf3a
00000050: 7faa cce1 ddfc e825 0381 eb7f ecfc 0ce2
00000060: c67f 1db2 752c 0d27 62a4 632a 6846 c230
00000070: 70d9 7a8e 0c54 123d fa34 bd40 b5f5 11f9
00000080: f21e aed2 0240 42b2 0b59 5b1b c7c0 dc15
00000090: c9cc 7fb1 f341 32b5 ee1b f09d acb2 ceda
000000a0: ecde a7fd 5f7f 4da0 e2e3 1540 ccd5 7f35
000000b0: dd19 3a84 2eab d313 8170 42ed 86e1 81c0
000000c0: 4b6e f0e5 2668 aa4a 916d d142 265f 0db7
000000d0: 7bd7 d581 1e81 13c7 195d 15c0 81e1 5881
000000e0: 0b65 412f 8454 f847 81c8 b20d 684e 40b3
000000f0: 2e81 939f 8132 ba16 4d41 7fba 2b57 0fa5

tfl.pseudo_qconst13 i1 [64, 1, 1, 64]
-28 39 -6 4 110 -78 -49 23
-18 42 39 46 -23 -43 40 -18
-50 2 -93 39 -25 45 -115 -24
0 -24 -71 67 29 80 -61 -9
-13 62 -46 69 127 35 -11 -15
-59 -7 15 108 76 -55 1 -4
-91 -5 -53 -19 -96 7 60 24
3 -67 86 -34 52 2 44 -71
-36 -33 -46 -86 -67 -70 -6 5
-49 113 26 -45 59 15 16 106
-21 83 -53 46 -113 50 -47 -95
55 -85 -48 10 -12 -7 -70 69
10 36 6 -47 2 76 76 -27
70 -5 25 127 66 51 9 45
-5 51 53 26 41 -46 11 -38
54 5 18 26 -9 -37 82 -9
-32 63 -7 -39 53 103 127 24
-64 -122 11 88 -10 -96 -97 -55
-47 29 65 -54 -50 -64 -7 17
-47 -23 50 -84 -22 -50 -13 58
-83 43 -63 39 73 -67 6 -58
40 120 -123 -61 116 -25 -67 -18
49 -50 -62 -67 -67 77 -75 -73
-87 89 65 -31 -27 -27 -35 53
2 40 23 -15 -27 -11 39 3
50 -59 38 69 -62 84 -98 2
-11 44 78 50 -26 -44 -51 15
-22 -7 -37 -9 -18 -42 127 -13
-62 14 -10 40 -22 11 -6 -38
76 7 14 -52 26 3 -21 -36
-44 -72 14 16 0 28 -31 -7
-74 40 40 24 4 51 -43 -20
00000000: e427 fa04 6eb2 cf17 ee2a 272e e9d5 28ee
00000010: ce02 a327 e72d 8de8 00e8 b943 1d50 c3f7
00000020: f33e d245 7f23 f5f1 c5f9 0f6c 4cc9 01fc
00000030: a5fb cbed a007 3c18 03bd 56de 3402 2cb9
00000040: dcdf d2aa bdba fa05 cf71 1ad3 3b0f 106a
00000050: eb53 cb2e 8f32 d1a1 37ab d00a f4f9 ba45
00000060: 0a24 06d1 024c 4ce5 46fb 197f 4233 092d
00000070: fb33 351a 29d2 0bda 3605 121a f7db 52f7
00000080: e03f f9d9 3567 7f18 c086 0b58 f6a0 9fc9
00000090: d11d 41ca cec0 f911 d1e9 32ac eace f33a
000000a0: ad2b c127 49bd 06c6 2878 85c3 74e7 bdee
000000b0: 31ce c2bd bd4d b5b7 a959 41e1 e5e5 dd35
000000c0: 0228 17f1 e5f5 2703 32c5 2645 c254 9e02
000000d0: f52c 4e32 e6d4 cd0f eaf9 dbf7 eed6 7ff3
000000e0: c20e f628 ea0b fada 4c07 0ecc 1a03 ebdc
000000f0: d4b8 0e10 001c e1f9 b628 2818 0433 d5ec

tfl.pseudo_qconst15 i1 [1, 11, 1, 32]
13 85 82 88 -45 12 -127 -51
-40 0 11 -96 25 -22 27 62
-11 92 -42 72 117 60 -25 83
-127 -13 71 -26 127 -95 -44 -28
-114 -48 -7 0 31 -8 -108 39
108 10 -89 -42 -61 -69 41 26
62 25 -25 87 127 44 127 10
19 107 -127 45 12 -127 64 -70
-1 29 44 50 -80 109 -80 19
10 49 -127 -97 18 13 -72 -48
37 18 117 -69 51 26 -34 50
-100 101 -13 38 -66 32 -45 -16
65 7 -112 -127 -127 -13 98 -14
-120 60 20 -25 -74 54 -21 -90
-23 -44 34 49 2 12 -59 -29
-20 -1 -32 -13 -35 -35 -105 50
68 33 99 18 -101 0 95 127
-21 6 74 115 -127 -127 -2 49
42 -120 -79 -7 -59 -5 0 -127
-94 97 6 48 -16 3 -127 22
65 -58 -127 -18 -4 -99 17 43
76 -127 -58 -8 -121 19 -29 81
66 43 -127 -4 106 57 -32 -20
98 -39 -78 -26 107 106 -69 -13
-42 12 29 65 -9 -108 53 -96
-45 -57 -48 94 -43 15 87 -46
71 76 -79 102 18 -1 16 1
-98 3 85 53 87 -46 26 27
57 -83 -1 -31 -10 -127 34 2
47 11 70 120 -35 -42 22 -72
-33 -127 93 95 -16 -46 -13 97
42 -70 -30 -24 -49 -15 80 -49
00000000: 0d55 5258 d30c 81cd d800 0ba0 19ea 1b3e
00000010: f55c d648 753c e753 81f3 47e6 7fa1 d4e4
00000020: 8ed0 f900 1ff8 9427 6c0a a7d6 c3bb 291a
00000030: 3e19 e757 7f2c 7f0a 136b 812d 0c81 40ba
00000040: ff1d 2c32 b06d b013 0a31 819f 120d b8d0
00000050: 2512 75bb 331a de32 9c65 f326 be20 d3f0
00000060: 4107 9081 81f3 62f2 883c 14e7 b636 eba6
00000070: e9d4 2231 020c c5e3 ecff e0f3 dddd 9732
00000080: 4421 6312 9b00 5f7f eb06 4a73 8181 fe31
00000090: 2a88 b1f9 c5fb 0081 a261 0630 f003 8116
000000a0: 41c6 81ee fc9d 112b 4c81 c6f8 8713 e351
000000b0: 422b 81fc 6a39 e0ec 62d9 b2e6 6b6a bbf3
000000c0: d60c 1d41 f794 35a0 d3c7 d05e d50f 57d2
000000d0: 474c b166 12ff 1001 9e03 5535 57d2 1a1b
000000e0: 39ad ffe1 f681 2202 2f0b 4678 ddd6 16b8
000000f0: df81 5d5f f0d2 f361 2aba e2e8 cff1 50cf

tfl.pseudo_qconst17 i1 [1, 7, 1, 32]
-83 -53 60 9 29 -21 32 95
40 -72 65 13 91 -6 96 -16
73 6 32 -116 -89 -95 -28 -76
-53 51 116 127 52 -83 -18 -9
57 -85 63 83 -37 12 -24 127
7 54 23 -127 -56 -59 -2 -21
-1 25 -16 31 69 -36 -127 -19
-13 119 105 -62 -37 -104 -37 -37
127 52 127 46 -38 -58 22 64
-86 -68 18 -82 -31 -18 34 23
1 57 -73 -121 36 127 -99 6
127 -69 82 37 -10 -29 -61 -17
-37 -34 -9 -110 -36 -38 -31 -32
-42 -107 -71 -38 -68 63 94 127
-92 54 -45 127 6 -82 -31 127
73 -114 -91 -3 -4 127 72 -9
123 19 -106 127 -32 127 -127 -19
101 -70 127 8 63 -57 -58 -64
34 -11 -75 114 -113 -54 -69 22
32 127 -17 -88 -85 43 -127 -38
114 -80 -51 76 127 89 -117 -122
84 -45 79 107 127 -127 -127 63
-5 -39 -127 -87 -29 -86 46 86
-102 60 53 -37 -127 68 52 69
25 -127 -2 -22 32 -45 66 -17
-127 127 -50 11 -50 -23 43 -95
-127 -127 -98 -99 127 43 -121 -73
34 -43 -127 -89 71 15 -34 -127
00000000: adcb 3c09 1deb 205f 28b8 410d 5bfa 60f0
00000010: 4906 208c a7a1 e4b4 cb33 747f 34ad eef7
00000020: 39ab 3f53 db0c e87f 0736 1781 c8c5 feeb
00000030: ff19 f01f 45dc 81ed f377 69c2 db98 dbdb
00000040: 7f34 7f2e dac6 1640 aabc 12ae e1ee 2217
00000050: 0139 b787 247f 9d06 7fbb 5225 f6e3 c3ef
00000060: dbde f792 dcda e1e0 d695 b9da bc3f 5e7f
00000070: a436 d37f 06ae e17f 498e a5fd fc7f 48f7
00000080: 7b13 967f e07f 81ed 65ba 7f08 3fc7 c6c0
00000090: 22f5 b572 8fca bb16 207f efa8 ab2b 81da
000000a0: 72b0 cd4c 7f59 8b86 54d3 4f6b 7f81 813f
000000b0: fbd9 81a9 e3aa 2e56 9a3c 35db 8144 3445
000000c0: 1981 feea 20d3 42ef 817f ce0b cee9 2ba1
000000d0: 8181 9e9d 7f2b 87b7 22d5 81a7 470f de81

tfl.pseudo_qconst19 i1 [64, 1, 1, 32]
25 29 16 63 -14 6 -25 6
-67 21 -3 47 50 37 18 15
-27 -16 -84 43 61 22 -127 2
17 -127 -13 -69 105 -58 -47 66
-69 -25 12 -61 9 8 -107 14
4 -23 -74 21 46 43 98 -8
45 -68 50 -45 -37 -15 -17 -127
63 -17 55 -44 -1 82 -3 80
4 25 -79 -94 -38 2 61 -88
127 81 47 28 -18 -21 6 63
-23 84 -18 67 -15 -70 -16 93
22 4 75 -77 53 31 19 -24
-8 88 -37 -114 79 -36 94 2
-24 -5 93 61 -105 39 112 52
35 70 22 6 0 -127 -89 -105
-38 10 49 14 -8 59 94 -110
-45 6 -74 62 -105 -27 54 113
-93 -126 71 1 19 14 87 70
-9 80 12 -76 -43 42 -85 40
-35 -97 -61 -3 127 -89 -25 29
-70 -62 36 -57 -1 15 -1 -54
40 -24 -60 76 -30 25 18 -45
-41 127 -60 -19 -88 24 29 18
20 84 -13 63 -15 30 -33 43
103 127 -6 35 7 -20 49 41
-62 89 37 56 -62 -22 -18 -42
19 -32 29 -4 54 56 -12 -91
32 -93 72 101 77 -114 27 -70
-26 58 -10 127 -31 -47 -5 92
33 -4 19 20 25 -25 -8 -22
-9 21 4 41 -35 -40 25 -20
-57 62 16 73 -35 -14 15 -5
00000000: 191d 103f f206 e706 bd15 fd2f 3225 120f
00000010: e5f0 ac2b 3d16 8102 1181 f3bb 69c6 d142
00000020: bbe7 0cc3 0908 950e 04e9 b615 2e2b 62f8
00000030: 2dbc 32d3 dbf1 ef81 3fef 37d4 ff52 fd50
00000040: 0419 b1a2 da02 3da8 7f51 2f1c eeeb 063f
00000050: e954 ee43 f1ba f05d 1604 4bb3 351f 13e8
00000060: f858 db8e 4fdc 5e02 e8fb 5d3d 9727 7034
00000070: 2346 1606 0081 a797 da0a 310e f83b 5e92
00000080: d306 b63e 97e5 3671 a382 4701 130e 5746
00000090: f750 0cb4 d52a ab28 dd9f c3fd 7fa7 e71d
000000a0: bac2 24c7 ff0f ffca 28e8 c44c e219 12d3
000000b0: d77f c4ed a818 1d12 1454 f33f f11e df2b
000000c0: 677f fa23 07ec 3129 c259 2538 c2ea eed6
000000d0: 13e0 1dfc 3638 f4a5 20a3 4865 4d8e 1bba
000000e0: e63a f67f e1d1 fb5c 21fc 1314 19e7 f8ea
000000f0: f715 0429 ddd8 19ec c73e 1049 ddf2 0ffb

tfl.pseudo_qconst21 i1 [1, 5, 1, 32]
79 -73 -95 35 17 72 127 56
-73 -68 -20 -91 3 -85 -36 -13
11 55 -58 -71 -127 33 42 -16
-58 -69 41 -27 55 81 -9 -14
-32 103 84 103 -127 120 5 56
-127 -127 -9 46 -127 -18 -3 -127
-39 -72 37 -127 25 -127 50 -43
16 27 97 20 9 69 -86 32
14 127 100 118 87 -127 22 101
87 -93 -25 112 -117 127 -97 -67
127 -122 108 74 -50 88 78 15
-24 17 -126 22 -85 126 25 80
-127 -44 -127 33 121 -108 4 22
105 -97 -127 -127 71 -115 127 -89
-12 127 49 -30 124 70 127 -37
127 127 -127 -112 -127 -27 -68 43
22 -59 118 -127 33 24 -32 -127
37 79 -94 -55 116 101 88 -67
94 -56 127 70 -127 -1 11 -127
-71 107 -38 -127 86 127 -127 127
00000000: 4fb7 a123 1148 7f38 b7bc eca5 03ab dcf3
00000010: 0b37 c6b9 8121 2af0 c6bb 29e5 3751 f7f2
00000020: e067 5467 8178 0538 8181 f72e 81ee fd81
00000030: d9b8 2581 1981 32d5 101b 6114 0945 aa20
00000040: 0e7f 6476 5781 1665 57a3 e770 8b7f 9fbd
00000050: 7f86 6c4a ce58 4e0f e811 8216 ab7e 1950
00000060: 81d4 8121 7994 0416 699f 8181 478d 7fa7
00000070: f47f 31e2 7c46 7fdb 7f7f 8190 81e5 bc2b
00000080: 16c5 7681 2118 e081 254f a2c9 7465 58bd
00000090: 5ec8 7f46 81ff 0b81 b96b da81 567f 817f

tfl.pseudo_qconst23 i1 [32, 5, 1, 40]
-36 -42 -56 -32 -59 -65 14 -5
-42 -39 36 20 -70 -70 -3 -9
40 -7 -32 37 -20 83 30 -38
0 13 -7 80 19 -1 38 -81
-30 -13 -71 -20 -26 -51 -59 -104
-22 -4 -23 10 -77 -44 -31 27
-59 16 -27 -48 -24 -12 24 -12
47 58 74 59 24 81 -4 12
-68 -4 45 75 -22 20 1 -127
13 -19 -22 -47 -7 -58 -28 -86
-44 -25 11 -39 -36 -110 -95 -10
73 8 -112 -25 42 -10 34 -17
-29 -84 18 100 80 59 79 28
-15 2 70 -39 -7 -9 -40 -56
-31 -8 -36 -19 34 0 -58 -8
-68 -18 38 -13 14 -24 -40 -5
-42 6 -74 -16 58 -37 -35 10
13 8 10 68 58 34 38 13
17 -50 79 5 33 28 25 -42
57 -22 -14 -31 -28 -1 -52 90
-22 53 4 -85 -7 -72 -11 25
-28 -18 -37 27 -29 -29 -49 -26
86 70 -33 16 -21 -44 -24 -25
31 7 13 -18 -22 -39 39 -91
5 57 95 51 35 70 -10 75
-58 -19 19 11 -29 -31 -6 -56
-79 -55 -51 -91 -47 -10 -35 3
-3 15 9 28 10 -22 24 -2
-13 -12 -20 -16 0 -34 -43 2
10 -13 -44 41 10 59 22 8
-39 -3 -6 -54 -47 -44 7 -84
-32 -86 -2 -103 -47 5 -7 -8
00000000: dcd6 c8e0 c5bf 0efb d6d9 2414 baba fdf7
00000010: 28f9 e025 ec53 1eda 000d f950 13ff 26af
00000020: e2f3 b9ec e6cd c598 eafc e90a b3d4 e11b
00000030: c510 e5d0 e8f4 18f4 2f3a 4a3b 1851 fc0c
00000040: bcfc 2d4b ea14 0181 0ded ead1 f9c6 e4aa
00000050: d4e7 0bd9 dc92 a1f6 4908 90e7 2af6 22ef
00000060: e3ac 1264 503b 4f1c f102 46d9 f9f7 d8c8
00000070: e1f8 dced 2200 c6f8 bcee 26f3 0ee8 d8fb
00000080: d606 b6f0 3adb dd0a 0d08 0a44 3a22 260d
00000090: 11ce 4f05 211c 19d6 39ea f2e1 e4ff cc5a
000000a0: ea35 04ab f9b8 f519 e4ee db1b e3e3 cfe6
000000b0: 5646 df10 ebd4 e8e7 1f07 0dee ead9 27a5
000000c0: 0539 5f33 2346 f64b c6ed 130b e3e1 fac8
000000d0: b1c9 cda5 d1f6 dd03 fd0f 091c 0aea 18fe
000000e0: f3f4 ecf0 00de d502 0af3 d429 0a3b 1608
000000f0: d9fd faca d1d4 07ac e0aa fe99 d105 f9f8

tfl.pseudo_qconst24 i1 [1, 14, 1, 64] scale=0.047682688 zero_point=-128
0.0 0.0 0.0 0.0 0.0 0.0 0.0 0.0
0.0 0.0 0.0 0.0 0.0 0.0 0.0 0.0
0.0 0.0 0.0 0.0 0.0 0.0 0.0 0.0
0.0 0.0 0.0 0.0 0.0 0.0 0.0 0.0
0.0 0.0 0.0 0.0 0.0 0.0 0.0 0.0
0.0 0.0 0.0 0.0 0.0 0.0 0.0 0.0
0.0 0.0 0.0 0.0 0.0 0.0 0.0 0.0
0.0 0.0 0.0 0.0 0.0 0.0 0.0 0.0
0.0 0.0 0.0 0.0 0.0 0.0 0.0 0.0
0.0 0.0 0.0 0.0 0.0 0.0 0.0 0.0
0.0 0.0 0.0 0.0 0.0 0.0 0.0 0.0
0.0 0.0 0.0 0.0 0.0 0.0 0.0 0.0
0.0 0.0 0.0 0.0 0.0 0.0 0.0 0.0
0.0 0.0 0.0 0.0 0.0 0.0 0.0 0.0
0.0 0.0 0.0 0.0 0.0 0.0 0.0 0.0
0.0 0.0 0.0 0.0 0.0 0.0 0.0 0.0
0.0 0.0 0.0 0.0 0.0 0.0 0.0 0.0
0.0 0.0 0.0 0.0 0.0 0.0 0.0 0.0
0.0 0.0 0.0 0.0 0.0 0.0 0.0 0.0
0.0 0.0 0.0 0.0 0.0 0.0 0.0 0.0
0.0 0.0 0.0 0.0 0.0 0.0 0.0 0.0
0.0 0.0 0.0 0.0 0.0 0.0 0.0 0.0
0.0 0.0 0.0 0.0 0.0 0.0 0.0 0.0
0.0 0.0 0.0 0.0 0.0 0.0 0.0 0.0
0.0 0.0 0.0 0.0 0.0 0.0 0.0 0.0
0.0 0.0 0.0 0.0 0.0 0.0 0.0 0.0
0.0 0.0 0.0 0.0 0.0 0.0 0.0 0.0
0.0 0.0 0.0 0.0 0.0 0.0 0.0 0.0
0.0 0.0 0.0 0.0 0.0 0.0 0.0 0.0
0.0 0.0 0.0 0.0 0.0 0.0 0.0 0.0
0.0 0.0 0.0 0.0 0.0 0.0 0.0 0.0
0.0 0.0 0.0 0.0 0.0 0.0 0.0 0.0
00000000: 8080 8080 8080 8080 8080 8080 8080 8080
00000010: 8080 8080 8080 8080 8080 8080 8080 8080
00000020: 8080 8080 8080 8080 8080 8080 8080 8080
00000030: 8080 8080 8080 8080 8080 8080 8080 8080
00000040: 8080 8080 8080 8080 8080 8080 8080 8080
00000050: 8080 8080 8080 8080 8080 8080 8080 8080
00000060: 8080 8080 8080 8080 8080 8080 8080 8080
00000070: 8080 8080 8080 8080 8080 8080 8080 8080
00000080: 8080 8080 8080 8080 8080 8080 8080 8080
00000090: 8080 8080 8080 8080 8080 8080 8080 8080
000000a0: 8080 8080 8080 8080 8080 8080 8080 8080
000000b0: 8080 8080 8080 8080 8080 8080 8080 8080
000000c0: 8080 8080 8080 8080 8080 8080 8080 8080
000000d0: 8080 8080 8080 8080 8080 8080 8080 8080
000000e0: 8080 8080 8080 8080 8080 8080 8080 8080
000000f0: 8080 8080 8080 8080 8080 8080 8080 8080

tfl.pseudo_qconst25 i1 [1, 10, 1, 64] scale=0.03589377 zero_point=-128
0.0 0.0 0.0 0.0 0.0 0.0 0.0 0.0
0.0 0.0 0.0 0.0 0.0 0.0 0.0 0.0
0.0 0.0 0.0 0.0 0.0 0.0 0.0 0.0
0.0 0.0 0.0 0.0 0.0 0.0 0.0 0.0
0.0 0.0 0.0 0.0 0.0 0.0 0.0 0.0
0.0 0.0 0.0 0.0 0.0 0.0 0.0 0.0
0.0 0.0 0.0 0.0 0.0 0.0 0.0 0.0
0.0 0.0 0.0 0.0 0.0 0.0 0.0 0.0
0.0 0.0 0.0 0.0 0.0 0.0 0.0 0.0
0.0 0.0 0.0 0.0 0.0 0.0 0.0 0.0
0.0 0.0 0.0 0.0 0.0 0.0 0.0 0.0
0.0 0.0 0.0 0.0 0.0 0.0 0.0 0.0
0.0 0.0 0.0 0.0 0.0 0.0 0.0 0.0
0.0 0.0 0.0 0.0 0.0 0.0 0.0 0.0
0.0 0.0 0.0 0.0 0.0 0.0 0.0 0.0
0.0 0.0 0.0 0.0 0.0 0.0 0.0 0.0
0.0 0.0 0.0 0.0 0.0 0.0 0.0 0.0
0.0 0.0 0.0 0.0 0.0 0.0 0.0 0.0
0.0 0.0 0.0 0.0 0.0 0.0 0.0 0.0
0.0 0.0 0.0 0.0 0.0 0.0 0.0 0.0
0.0 0.0 0.0 0.0 0.0 0.0 0.0 0.0
0.0 0.0 0.0 0.0 0.0 0.0 0.0 0.0
0.0 0.0 0.0 0.0 0.0 0.0 0.0 0.0
0.0 0.0 0.0 0.0 0.0 0.0 0.0 0.0
0.0 0.0 0.0 0.0 0.0 0.0 0.0 0.0
0.0 0.0 0.0 0.0 0.0 0.0 0.0 0.0
0.0 0.0 0.0 0.0 0.0 0.0 0.0 0.0
0.0 0.0 0.0 0.0 0.0 0.0 0.0 0.0
0.0 0.0 0.0 0.0 0.0 0.0 0.0 0.0
0.0 0.0 0.0 0.0 0.0 0.0 0.0 0.0
0.0 0.0 0.0 0.0 0.0 0.0 0.0 0.0
0.0 0.0 0.0 0.0 0.0 0.0 0.0 0.0
00000000: 8080 8080 8080 8080 8080 8080 8080 8080
00000010: 8080 8080 8080 8080 8080 8080 8080 8080
00000020: 8080 8080 8080 8080 8080 8080 8080 8080
00000030: 8080 8080 8080 8080 8080 8080 8080 8080
00000040: 8080 8080 8080 8080 8080 8080 8080 8080
00000050: 8080 8080 8080 8080 8080 8080 8080 8080
00000060: 8080 8080 8080 8080 8080 8080 8080 8080
00000070: 8080 8080 8080 8080 8080 8080 8080 8080
00000080: 8080 8080 8080 8080 8080 8080 8080 8080
00000090: 8080 8080 8080 8080 8080 8080 8080 8080
000000a0: 8080 8080 8080 8080 8080 8080 8080 8080
000000b0: 8080 8080 8080 8080 8080 8080 8080 8080
000000c0: 8080 8080 8080 8080 8080 8080 8080 8080
000000d0: 8080 8080 8080 8080 8080 8080 8080 8080
000000e0: 8080 8080 8080 8080 8080 8080 8080 8080
000000f0: 8080 8080 8080 8080 8080 8080 8080 8080

tfl.pseudo_qconst26 i1 [1, 4, 1, 32] scale=0.85745716 zero_point=-128
0.0 0.0 0.0 0.0 0.0 0.0 0.0 0.0
0.0 0.0 0.0 0.0 0.0 0.0 0.0 0.0
0.0 0.0 0.0 0.0 0.0 0.0 0.0 0.0
0.0 0.0 0.0 0.0 0.0 0.0 0.0 0.0
0.0 0.0 0.0 0.0 0.0 0.0 0.0 0.0
0.0 0.0 0.0 0.0 0.0 0.0 0.0 0.0
0.0 0.0 0.0 0.0 0.0 0.0 0.0 0.0
0.0 0.0 0.0 0.0 0.0 0.0 0.0 0.0
0.0 0.0 0.0 0.0 0.0 0.0 0.0 0.0
0.0 0.0 0.0 0.0 0.0 0.0 0.0 0.0
0.0 0.0 0.0 0.0 0.0 0.0 0.0 0.0
0.0 0.0 0.0 0.0 0.0 0.0 0.0 0.0
0.0 0.0 0.0 0.0 0.0 0.0 0.0 0.0
0.0 0.0 0.0 0.0 0.0 0.0 0.0 0.0
0.0 0.0 0.0 0.0 0.0 0.0 0.0 0.0
0.0 0.0 0.0 0.0 0.0 0.0 0.0 0.0
00000000: 8080 8080 8080 8080 8080 8080 8080 8080
00000010: 8080 8080 8080 8080 8080 8080 8080 8080
00000020: 8080 8080 8080 8080 8080 8080 8080 8080
00000030: 8080 8080 8080 8080 8080 8080 8080 8080
00000040: 8080 8080 8080 8080 8080 8080 8080 8080
00000050: 8080 8080 8080 8080 8080 8080 8080 8080
00000060: 8080 8080 8080 8080 8080 8080 8080 8080
00000070: 8080 8080 8080 8080 8080 8080 8080 8080

tfl.pseudo_qconst27 i1 [1, 2, 1, 40] scale=0.101960786 zero_point=-128
0.0 0.0 0.0 0.0 0.0 0.0 0.0 0.0
0.0 0.0 0.0 0.0 0.0 0.0 0.0 0.0
0.0 0.0 0.0 0.0 0.0 0.0 0.0 0.0
0.0 0.0 0.0 0.0 0.0 0.0 0.0 0.0
0.0 0.0 0.0 0.0 0.0 0.0 0.0 0.0
0.0 0.0 0.0 0.0 0.0 0.0 0.0 0.0
0.0 0.0 0.0 0.0 0.0 0.0 0.0 0.0
0.0 0.0 0.0 0.0 0.0 0.0 0.0 0.0
0.0 0.0 0.0 0.0 0.0 0.0 0.0 0.0
0.0 0.0 0.0 0.0 0.0 0.0 0.0 0.0
00000000: 8080 8080 8080 8080 8080 8080 8080 8080
00000010: 8080 8080 8080 8080 8080 8080 8080 8080
00000020: 8080 8080 8080 8080 8080 8080 8080 8080
00000030: 8080 8080 8080 8080 8080 8080 8080 8080
00000040: 8080 8080 8080 8080 8080 8080 8080 8080

tfl.pseudo_qconst28 i1 [1, 16, 1, 64] scale=0.02744291 zero_point=-128
0.0 0.0 0.0 0.0 0.0 0.0 0.0 0.0
0.0 0.0 0.0 0.0 0.0 0.0 0.0 0.0
0.0 0.0 0.0 0.0 0.0 0.0 0.0 0.0
0.0 0.0 0.0 0.0 0.0 0.0 0.0 0.0
0.0 0.0 0.0 0.0 0.0 0.0 0.0 0.0
0.0 0.0 0.0 0.0 0.0 0.0 0.0 0.0
0.0 0.0 0.0 0.0 0.0 0.0 0.0 0.0
0.0 0.0 0.0 0.0 0.0 0.0 0.0 0.0
0.0 0.0 0.0 0.0 0.0 0.0 0.0 0.0
0.0 0.0 0.0 0.0 0.0 0.0 0.0 0.0
0.0 0.0 0.0 0.0 0.0 0.0 0.0 0.0
0.0 0.0 0.0 0.0 0.0 0.0 0.0 0.0
0.0 0.0 0.0 0.0 0.0 0.0 0.0 0.0
0.0 0.0 0.0 0.0 0.0 0.0 0.0 0.0
0.0 0.0 0.0 0.0 0.0 0.0 0.0 0.0
0.0 0.0 0.0 0.0 0.0 0.0 0.0 0.0
0.0 0.0 0.0 0.0 0.0 0.0 0.0 0.0
0.0 0.0 0.0 0.0 0.0 0.0 0.0 0.0
0.0 0.0 0.0 0.0 0.0 0.0 0.0 0.0
0.0 0.0 0.0 0.0 0.0 0.0 0.0 0.0
0.0 0.0 0.0 0.0 0.0 0.0 0.0 0.0
0.0 0.0 0.0 0.0 0.0 0.0 0.0 0.0
0.0 0.0 0.0 0.0 0.0 0.0 0.0 0.0
0.0 0.0 0.0 0.0 0.0 0.0 0.0 0.0
0.0 0.0 0.0 0.0 0.0 0.0 0.0 0.0
0.0 0.0 0.0 0.0 0.0 0.0 0.0 0.0
0.0 0.0 0.0 0.0 0.0 0.0 0.0 0.0
0.0 0.0 0.0 0.0 0.0 0.0 0.0 0.0
0.0 0.0 0.0 0.0 0.0 0.0 0.0 0.0
0.0 0.0 0.0 0.0 0.0 0.0 0.0 0.0
0.0 0.0 0.0 0.0 0.0 0.0 0.0 0.0
0.0 0.0 0.0 0.0 0.0 0.0 0.0 0.0
00000000: 8080 8080 8080 8080 8080 8080 8080 8080
00000010: 8080 8080 8080 8080 8080 8080 8080 8080
00000020: 8080 8080 8080 8080 8080 8080 8080 8080
00000030: 8080 8080 8080 8080 8080 8080 8080 8080
00000040: 8080 8080 8080 8080 8080 8080 8080 8080
00000050: 8080 8080 8080 8080 8080 8080 8080 8080
00000060: 8080 8080 8080 8080 8080 8080 8080 8080
00000070: 8080 8080 8080 8080 8080 8080 8080 8080
00000080: 8080 8080 8080 8080 8080 8080 8080 8080
00000090: 8080 8080 8080 8080 8080 8080 8080 8080
000000a0: 8080 8080 8080 8080 8080 8080 8080 8080
000000b0: 8080 8080 8080 8080 8080 8080 8080 8080
000000c0: 8080 8080 8080 8080 8080 8080 8080 8080
000000d0: 8080 8080 8080 8080 8080 8080 8080 8080
000000e0: 8080 8080 8080 8080 8080 8080 8080 8080
000000f0: 8080 8080 8080 8080 8080 8080 8080 8080

tfl.pseudo_qconst29 i1 [1, 22, 1, 64] scale=0.03573324 zero_point=-128
0.0 0.0 0.0 0.0 0.0 0.0 0.0 0.0
0.0 0.0 0.0 0.0 0.0 0.0 0.0 0.0
0.0 0.0 0.0 0.0 0.0 0.0 0.0 0.0
0.0 0.0 0.0 0.0 0.0 0.0 0.0 0.0
0.0 0.0 0.0 0.0 0.0 0.0 0.0 0.0
0.0 0.0 0.0 0.0 0.0 0.0 0.0 0.0
0.0 0.0 0.0 0.0 0.0 0.0 0.0 0.0
0.0 0.0 0.0 0.0 0.0 0.0 0.0 0.0
0.0 0.0 0.0 0.0 0.0 0.0 0.0 0.0
0.0 0.0 0.0 0.0 0.0 0.0 0.0 0.0
0.0 0.0 0.0 0.0 0.0 0.0 0.0 0.0
0.0 0.0 0.0 0.0 0.0 0.0 0.0 0.0
0.0 0.0 0.0 0.0 0.0 0.0 0.0 0.0
0.0 0.0 0.0 0.0 0.0 0.0 0.0 0.0
0.0 0.0 0.0 0.0 0.0 0.0 0.0 0.0
0.0 0.0 0.0 0.0 0.0 0.0 0.0 0.0
0.0 0.0 0.0 0.0 0.0 0.0 0.0 0.0
0.0 0.0 0.0 0.0 0.0 0.0 0.0 0.0
0.0 0.0 0.0 0.0 0.0 0.0 0.0 0.0
0.0 0.0 0.0 0.0 0.0 0.0 0.0 0.0
0.0 0.0 0.0 0.0 0.0 0.0 0.0 0.0
0.0 0.0 0.0 0.0 0.0 0.0 0.0 0.0
0.0 0.0 0.0 0.0 0.0 0.0 0.0 0.0
0.0 0.0 0.0 0.0 0.0 0.0 0.0 0.0
0.0 0.0 0.0 0.0 0.0 0.0 0.0 0.0
0.0 0.0 0.0 0.0 0.0 0.0 0.0 0.0
0.0 0.0 0.0 0.0 0.0 0.0 0.0 0.0
0.0 0.0 0.0 0.0 0.0 0.0 0.0 0.0
0.0 0.0 0.0 0.0 0.0 0.0 0.0 0.0
0.0 0.0 0.0 0.0 0.0 0.0 0.0 0.0
0.0 0.0 0.0 0.0 0.0 0.0 0.0 0.0
0.0 0.0 0.0 0.0 0.0 0.0 0.0 0.0
00000000: 8080 8080 8080 8080 8080 8080 8080 8080
00000010: 8080 8080 8080 8080 8080 8080 8080 8080
00000020: 8080 8080 8080 8080 8080 8080 8080 8080
00000030: 8080 8080 8080 8080 8080 8080 8080 8080
00000040: 8080 8080 8080 8080 8080 8080 8080 8080
00000050: 8080 8080 8080 8080 8080 8080 8080 8080
00000060: 8080 8080 8080 8080 8080 8080 8080 8080
00000070: 8080 8080 8080 8080 8080 8080 8080 8080
00000080: 8080 8080 8080 8080 8080 8080 8080 8080
00000090: 8080 8080 8080 8080 8080 8080 8080 8080
000000a0: 8080 8080 8080 8080 8080 8080 8080 8080
000000b0: 8080 8080 8080 8080 8080 8080 8080 8080
000000c0: 8080 8080 8080 8080 8080 8080 8080 8080
000000d0: 8080 8080 8080 8080 8080 8080 8080 8080
000000e0: 8080 8080 8080 8080 8080 8080 8080 8080
000000f0: 8080 8080 8080 8080 8080 8080 8080 8080
